outputs/gating/best_gating.pth (torch, 421425 bytes, 42 tensors)

architecture.layers.0.weight f4 [128, 45]
000000 01 11 03 be 3f fc 6d bd 0b 65 a3 3c db de 66 bd
       -0.12799455 -0.05810189 0.019945642 -0.056364875
000010 e9 e9 12 be 21 03 ee 3d d7 47 c3 bd 54 6a 6f 3d
       -0.14347042 0.116216905 -0.09535187 0.05845101
000020 75 0c f9 3d 95 cb 53 bb 70 d2 87 3d e1 06 e1 bd
       0.12160579 -0.003231739 0.06631935 -0.1098764
000030 5a e3 89 3c 84 99 89 bd fc 2c 04 3d 3e 19 99 bc
       0.016832042 -0.06718734 0.032269463 -0.018688794
000040 17 9e 13 3d 15 b8 b6 bd 1d ad 3d bc 82 4c e3 3d
       0.036039438 -0.089218296 -0.011576918 0.11098577
000050 d7 6f 7c bd ce 08 df 3c 6c 1c a0 3d c6 b3 fe 3d
       -0.061630096 0.027225878 0.07817921 0.12436633
000060 14 92 44 bd d1 cd fb bd 78 b4 b1 3d dc 97 f4 3d
       -0.047990873 -0.12295116 0.08677 0.119430274
000070 41 3b 87 3d 81 f1 fd bd 10 35 d2 3d 7d 5f 6e bb
       0.06603099 -0.12399579 0.10264027 -0.0036372833
000080 e3 d7 00 3e 76 3a 0d be bc 0e 75 bd 2a f0 93 bd
       0.12582354 -0.13791832 -0.059828505 -0.07223542
000090 f6 a0 f3 3d 4d 3d cd 3c 33 41 fd bd ab a1 10 3e
       0.11895935 0.025053645 -0.123659514 0.14124171
0000a0 de 9b c3 bd 01 ec 17 3c 7b 0f fb 3d e0 08 01 3e
       -0.09551214 0.009272576 0.12258812 0.12601042
0000b0 82 90 03 be 82 95 6e bd 5d 55 01 3e 39 14 67 b9
       -0.12848094 -0.05824805 0.1263022 -0.0002203741
0000c0 36 8e fb 3d 08 7f fb bc cc 88 f6 3d 1f 27 2b bd
       0.12282984 -0.030700222 0.12037811 -0.041785356
0000d0 42 61 c0 3d 5e 53 fd 3d 0f 7d 8c 3d 33 3c 1e 3d
       0.093935505 0.12369417 0.068597905 0.03863163
0000e0 f9 92 cf 3d d4 cd 93 3d b6 34 07 be c0 4a da 3d
       0.10135455 0.07216993 -0.13203701 0.10658789
0000f0 d0 23 96 bc 05 9c a6 3d 5e 45 d7 bd 9f c5 f2 3d
       -0.018327624 0.08135227 -0.105112776 0.118540995
000100 43 4a 62 ba 64 11 86 3d 6d 1e e8 3d 56 b4 91 3c
       -0.00086322817 0.06546286 0.11333928 0.017786186
000110 22 cd a8 bc 84 c2 16 be c3 89 11 be 51 ee 05 be
       -0.020605627 -0.1472264 -0.14212708 -0.13079192
000120 f5 60 1f 3d f9 e0 62 3d 8b 5e 18 be 2d 71 17 3e
       0.038910825 0.055390332 -0.14879815 0.14789267
000130 4d 97 0a 3d b4 37 53 3c c6 46 10 3d 86 b7 f8 bd
       0.033835698 0.012891699 0.035223745 -0.12144379
000140 39 e4 90 bd d2 67 6b bc 20 63 66 3b 51 2d f2 3d
       -0.0707478 -0.014368014 0.0035154298 0.1182505
000150 2f 65 74 bd 6a a0 66 3d bd 40 b8 bd 49 80 0c be
       -0.05966681 0.056305327 -0.08996723 -0.13720812
000160 3b b2 63 bd 16 b4 d5 bb a6 a1 0d 3e cb be 7e bd
       -0.055589896 -0.006521712 0.13831195 -0.062193673
000170 34 fa fb bc 61 b5 d3 bd 25 34 cf bd 5e 7b d0 3b
       -0.030758955 -0.1033733 -0.10117368 0.0063623628
000180 91 d0 54 bd d4 c2 ff 3d ed 96 32 bd f7 0a 6e bc
       -0.051956717 0.124883324 -0.043600965 -0.014528981
000190 cd 19 e0 3d fb b2 04 be f5 4f 08 3e 16 ba 0f 3e
       0.10942421 -0.129589 0.13311751 0.1403583
0001a0 c6 1f b2 bd 1b 13 17 be 50 be 5d 3a 1e b6 bf 3b
       -0.086974666 -0.14753382 0.000845884 0.0058505675
0001b0 12 6f 28 bc a7 9a 46 3d 7c 10 be bd 07 0b 90 bd
       -0.0102803875 0.04848733 -0.09280488 -0.07033353
0001c0 92 37 cc bb 5e dd 0b 3e 8e 73 01 be 3a ec f1 3c
       -0.0062322104 0.13658664 -0.12641737 0.029531587
0001d0 3f 6f 8e 3d 43 9c 87 bd 09 af ab bc cb 7d 90 bd
       0.06954812 -0.066216014 -0.020957487 -0.07055243
0001e0 dc ca d6 3d e9 40 c0 3d 10 16 14 be 42 8d 9b bd
       0.10487911 0.09387381 -0.14461541 -0.07595302
0001f0 b3 63 3a 3d 59 1f 2b bd 34 a9 7d 3b 2d e7 24 3b
       0.045505237 -0.041777942 0.003870559 0.0025162206
000200 92 7b f4 3d 71 86 b1 3b d3 d8 e5 3c 9a 10 ac bc
       0.11937632 0.005417638 0.028057491 -0.02100401
000210 38 d2 0a 3d 56 ac fd 3d f9 2e a5 bd a9 a8 b8 bd
       0.033891886 0.12386386 -0.080656 -0.09016544
000220 a8 e3 2b bc 45 b3 90 3d 79 ab 04 3e 46 97 0b bd
       -0.010491289 0.07065443 0.12956037 -0.034079812
000230 2b 5e 02 3e e3 cb f6 bd cd 2f 44 bd 6e 1c 12 be
       0.12731235 -0.12050607 -0.04789715 -0.14268658
000240 9b 12 1c bd 79 b5 b9 bd 06 83 92 3c d2 24 93 bd
       -0.03810368 -0.09067816 0.017884742 -0.07184757
000250 d8 cf 89 bd eb 41 98 3d 71 4b e1 bd fd 98 ae 3c
       -0.06729096 0.07434448 -0.110007174 0.021313185
000260 85 f1 a6 bb 35 e4 9b bd a7 64 93 3d 18 eb 9c bd
       -0.0050947093 -0.076118864 0.07196932 -0.07662028
000270 b6 f4 17 be 0e 1c a3 bd 01 6d b9 3d bd 7a 2a bd
       -0.14839444 -0.079643354 0.09053994 -0.04162096
000280 88 d0 e3 bc 44 26 f4 bd 49 81 9f 3b 64 dc 88 3d
       -0.027809396 -0.11921361 0.004867707 0.06682661
000290 79 25 59 3d 97 6a 91 bd a4 d5 ae bd 43 17 a6 3d
       0.053014252 -0.071004085 -0.085368425 0.081099056
0002a0 a2 d5 61 bd 73 39 a7 bc b8 fa e3 3c 1a a8 81 3d
       -0.055135377 -0.020413136 0.027829513 0.06330891
0002b0 09 2e 64 3d af bf be bd c7 bd 05 bb a2 58 e4 3b
       0.055707965 -0.093139045 -0.0020407306 0.0069685737
0002c0 ad 3a 06 be 01 b1 a7 3c ca ff 4c bd ff 6f 92 3d
       -0.1310832 0.020470144 -0.050048627 0.07150268
0002d0 92 cb 87 bd 55 d1 a1 3d a9 1d 39 bc 92 00 15 be
       -0.06630625 0.07901255 -0.011298575 -0.14550999
0002e0 f8 ec 38 bd 25 b6 27 3c cd 91 5a 3c 3c 63 0e 3e
       -0.045147866 0.010236298 0.013340426 0.13905042
0002f0 2f 3a e8 3d 5e de 8e 3d 2c f5 bf 3d 7f db 3f 3d
       0.11339223 0.06976007 0.09372935 0.046840187
000300 bb 44 de 3d 9b 9f 2b 3c bc 8d b9 3d bf 46 fa bd
       0.10852953 0.010475065 0.09060237 -0.12220525
000310 53 f0 c2 bd 19 ac 52 3d d3 f9 04 bd bc 5d 97 3d
       -0.095184945 0.051433656 -0.032464813 0.07390925
000320 20 9a d2 bd 6b fc 29 bd 23 cb 0b be 8f 97 99 3d
       -0.10283303 -0.04150049 -0.1365171 0.07499611
000330 a9 95 fa 3b 1b 3e d0 3d 71 ab 0a bd e2 4b 5d 3d
       0.0076472354 0.10168096 -0.033854906 0.054027446
000340 56 89 d3 bd 09 e0 22 bc 95 48 38 bd 4a f7 01 3e
       -0.10328929 -0.009941109 -0.044991095 0.1269199
000350 4b bb dc 3d da 05 ef bd c5 99 c2 3d db 12 83 bd
       0.10777911 -0.11671038 0.095019855 -0.06400081
000360 b9 ad e3 3d 7f 8a a8 3c 6c 7c 9e 3d 1c 60 57 3d
       0.11117119 0.020573853 0.07738575 0.05258189
000370 bd e0 80 3c 32 6e c8 3d ae ed 12 3e cd db e6 3c
       0.015732164 0.09786643 0.1434848 0.028180981
000380 0d b1 41 3d 57 4f 09 3e 3c 10 11 be 21 fb 0d be
       0.04728799 0.13409172 -0.14166349 -0.1386533
000390 72 12 01 be ab 38 1a 3d a2 d6 13 3e b1 bd 82 bd
       -0.12604693 0.0376517 0.14437345 -0.06383837
0003a0 09 7f 4e 3c 88 30 bb 3d 65 31 91 bd d9 21 21 bd
       0.01260353 0.09140116 -0.070894994 -0.03933892
0003b0 56 02 c5 bd 48 fd 69 3d 4e 89 7d 3d 5e a6 b9 3d
       -0.09619586 0.057126313 0.061898522 0.09064935
0003c0 8b b9 07 3e 59 f8 e6 bb 9c 22 83 3d 71 94 2e bc
       0.13254373 -0.0070486483 0.064030856 -0.010655508
0003d0 11 7b 78 bc 88 56 8b bd 39 3f ca 3d 17 5d 6b bb
       -0.01516606 -0.06803614 0.0987534 -0.003591364
0003e0 35 d7 58 3d 8b c9 b0 bd 9d e2 6c bd 2f 92 c2 3d
       0.052939612 -0.08632191 -0.057833303 0.095005386
0003f0 56 b9 15 3d f5 34 6f 3c e6 3b c0 bd 31 05 f0 bd
       0.036553703 0.014600028 -0.09386425 -0.1171974

architecture.layers.0.bias f4 [128]
000000 58 d8 a9 bb 21 33 68 3d 91 26 09 be 08 6d e7 bd
       -0.005183261 0.056689385 -0.13393618 -0.11300093
000010 2c 24 a0 3d 1d fd 0c be 2d 17 e6 3c f5 5a f0 3d
       0.07819399 -0.1376843 0.028087223 0.11736099
000020 28 78 0d be 6f b0 87 bd 42 6b ea 3d 0c 77 8c 3d
       -0.13815367 -0.06625449 0.11446239 0.06858644
000030 13 51 fc 3c 77 0b 2b 3d 26 10 fa 3d 9c 09 d7 3b
       0.030800378 0.04175898 0.12210111 0.006562425
000040 32 6b 95 3d aa a2 d5 3d 14 2f 3c bd 5c 66 be bd
       0.072958365 0.10431416 -0.045943335 -0.09296867
000050 39 09 83 bd 44 44 f9 bd b1 8a 09 3c 2c cf 88 bd
       -0.063982435 -0.12171224 0.008394883 -0.0668014
000060 04 f3 cb 3d 48 4b 4a bd d6 c7 91 3d 45 62 b8 3d
       0.09958461 -0.0493882 0.07118194 0.090031184
000070 1b fa c7 bd 26 5b 06 3e c3 21 d8 bd a3 48 85 bd
       -0.09764501 0.13120708 -0.105533145 -0.06507995
000080 31 2c 64 3d 35 f0 83 3d 61 6f 04 be eb fa e6 bc
       0.055706207 0.064423 -0.12933113 -0.028195819
000090 ea 92 7b bd 0e c4 c4 bd 13 0f ee 3d 31 af 82 3d
       -0.061419405 -0.09607707 0.11623969 0.06381071
0000a0 73 13 be 3c d5 a8 bb 3d bd 6f 1e bd 17 06 96 bd
       0.023202633 0.091630615 -0.03868078 -0.0732538
0000b0 d3 be 03 be e7 c4 14 be 62 a9 60 bd 85 49 8e 3d
       -0.12865762 -0.14528237 -0.054849036 0.069476165
0000c0 59 85 81 bd 77 53 8f 3d ba ea 5c 3d 40 ad ad 3d
       -0.06324262 0.069983415 0.05393479 0.084803104
0000d0 6c f1 b3 bc a8 58 e7 3d 22 00 b8 3d 0d 1a 4c 3a
       -0.021965705 0.11296207 0.089844 0.0007785864
0000e0 53 be 63 3d e3 be d5 bd e6 1c aa bd cb 3e ce bd
       0.05560143 -0.104367994 -0.08306293 -0.100705706
0000f0 85 4f 0d 3e 9e 95 fb 3d 78 0a 57 bd e1 b8 02 3e
       0.13799866 0.122843966 -0.05250022 0.12765838
000100 3d 17 09 3c 17 92 0d 3e f3 0d 0c be 6a 44 4b bd
       0.008367357 0.1382526 -0.13677196 -0.04962579
000110 a9 0e 86 3d ba 10 a8 3d a3 49 87 3c 88 69 53 3d
       0.06545765 0.08206315 0.016514605 0.051614314
000120 cd 96 4f bd c3 81 7f bc db d1 a8 bd e7 93 44 bd
       -0.050680924 -0.015594902 -0.08243152 -0.047992613
000130 c4 f4 df bd fe e0 08 3d e5 31 95 3d 0c ca f8 3d
       -0.10935357 0.033417694 0.07284907 0.121479124
000140 12 ba d6 bd 2b 0b c9 bc 0d 72 b7 3d 86 aa 1f 3d
       -0.10484709 -0.024541458 0.089573 0.038980983
000150 84 08 d4 bd 32 c6 95 bd 98 8f b8 3c eb d0 d2 3c
       -0.10353187 -0.073131934 0.022529408 0.025734385
000160 6d 1c 64 3d c2 dc 4c bd 61 33 01 bd b5 94 00 3e
       0.05569117 -0.05001522 -0.03154314 0.12556727
000170 73 6e c8 3d aa 7c 06 3d f4 9d ea 3d 18 89 c9 3b
       0.097866915 0.032833733 0.114559084 0.006150376
000180 23 2a a1 b9 7a ff af 3d cf eb de bc 35 af 0a 3d
       -0.00030739707 0.0859365 -0.027212052 0.033858497
000190 d8 bf 92 3d e5 d4 d1 bd 61 ae 86 bd cb 80 95 3d
       0.071654975 -0.102456845 -0.06576229 0.07299956
0001a0 33 fa e5 3d 58 b2 f2 bc a3 02 b2 bd 45 3b ec bd
       0.11229362 -0.029626057 -0.08691909 -0.11534742
0001b0 65 54 da 3d 3d 0a 3a bd 8a 3d df bd c8 2c 5d bd
       0.10660628 -0.04541992 -0.109004095 -0.053997785
0001c0 ae 3f 0e be e3 2d c6 3c 5b dc cf bd 94 a9 5a 3d
       -0.1389148 0.024191802 -0.10149451 0.05338438
0001d0 b8 7f d0 3d b9 e9 b5 3d a9 db 17 be b8 71 8c 3d
       0.101806104 0.0888247 -0.14829887 0.06857628
0001e0 d5 89 a6 3d 51 79 99 3d f6 63 97 bd 3f 8e cc 3d
       0.08131758 0.074938424 -0.07392113 0.09988069
0001f0 35 cb 53 bc a1 ee f4 3c 15 9e 05 3d 81 c6 03 be
       -0.012926866 0.029898943 0.032621462 -0.12868692

architecture.layers.1.weight f4 [64, 128]
000000 25 aa fd 3c 18 02 a0 bd b0 47 5a 3c ae 8b 6f bd
       0.03096492 -0.07812899 0.013322756 -0.05848282
000010 5d 33 a3 bd 4d 3e 87 3d e1 c5 a4 3d 27 d4 0b 3d
       -0.07968781 0.0660368 0.08045555 0.03413787
000020 97 e1 76 bd 82 b6 9a 3d b9 54 82 bc 7a 45 9b 3c
       -0.060273733 0.07554342 -0.01590954 0.018954027
000030 69 76 92 bd 6e c1 9f bd 17 48 42 bd 60 51 3b bc
       -0.07151491 -0.07800566 -0.04743203 -0.0114329755
000040 54 24 1e bd 01 5f 9e bc 5d e0 aa 3c 72 f9 6f bd
       -0.038608864 -0.01933241 0.020858938 -0.0585875
000050 d3 5b a2 3d 0a a7 64 bd 91 f6 23 bc 0b 57 b3 bd
       0.0792767 -0.055823363 -0.0100075165 -0.087568365
000060 b8 2a 73 bc 4f 09 47 bd 9a d9 f6 bb 7f 03 62 bc
       -0.014841728 -0.04859286 -0.0075332643 -0.013794779
000070 b5 15 fb 3c 4b 64 b1 bd 76 5f df bc ff de 7e bd
       0.03065 -0.086617075 -0.027267199 -0.062224384
000080 d1 e4 a7 bd 46 ce ad bc 9e 2a 9a 3d 70 22 ae bd
       -0.0819794 -0.021216523 0.0752766 -0.08502662
000090 aa 4f 9d 3d aa b5 23 3d 7f b4 62 b9 f3 2e 58 bb
       0.0768121 0.03996817 -0.0002162028 -0.0032986968
0000a0 f3 0e 1e 3b af 4a a8 bd d4 0e ca 3c 08 5c 07 3c
       0.0024117797 -0.0821737 0.024665274 0.008261688
0000b0 09 69 42 bd 3c 4c 9f bd e6 4a 22 bd fe 5d ab bd
       -0.04746345 -0.077782124 -0.03962221 -0.08367537
0000c0 0c f5 aa bd c4 b9 49 3d 4b 7b 98 3d be f6 ab bd
       -0.0834752 0.049249426 0.07445391 -0.08396672
0000d0 f7 26 a7 3c b5 ce 48 bd b5 f2 06 3d b8 ab 90 3d
       0.020404322 -0.049025256 0.032946307 0.07064003
0000e0 b3 66 88 3c ca ef 63 bd b1 73 9c 3d 7f d8 33 bd
       0.016650533 -0.055648603 0.07639254 -0.04390764
0000f0 51 d0 55 3d f3 8b d1 3a a8 df 74 bd 81 cb 37 bc
       0.05220062 0.0015987143 -0.059783608 -0.011217953
000100 5f cc 21 bc 01 e3 90 3d a8 82 93 3d a4 46 a9 3d
       -0.009875386 0.070745476 0.07202655 0.08265427
000110 5a a3 85 bd b8 d0 a6 3d 4f 47 7e 3d a0 c0 21 3d
       -0.065252975 0.08145279 0.062079724 0.039490342
000120 b4 b5 99 3d 85 40 3a 3d 1c 5c 01 3c 53 f4 3e 3d
       0.0750536 0.045471687 0.007895496 0.046619724
000130 54 ce a7 bd 50 02 2e 3b c2 4d 95 bd 07 21 54 bd
       -0.08193651 0.0026551671 -0.07290222 -0.05178931
000140 08 d7 73 3b 85 99 15 bd e1 e1 86 bb 1d ad 36 3d
       0.0037207026 -0.03652336 -0.0041162823 0.044598687
000150 f0 23 6a 3d 12 1e d7 3c 7b f1 30 bd 00 30 5a 3c
       0.05716318 0.026259456 -0.043199044 0.013317108
000160 b3 59 29 3d 7b 5f 5f 3d be 90 01 3d 51 d8 a8 bd
       0.04134531 0.054534417 0.031632178 -0.08244384
000170 68 d4 7b bd 40 1e b9 3c b9 00 04 bd 69 a8 c4 3b
       -0.061481863 0.022597432 -0.03222725 0.0060015214
000180 21 36 cc bc 5f 39 64 3d 7e 3e fc 3b 26 de d5 bc
       -0.024928154 0.055718776 0.0076978793 -0.026106905
000190 ec aa 83 bd f2 53 83 3c ac 70 76 3d 67 ba a9 bd
       -0.06429085 0.01603124 0.060166046 -0.082875066
0001a0 e6 c2 aa 3d 80 93 9c 3d 46 d3 ac 3c 24 d6 87 bc
       0.08337955 0.07645321 0.021096837 -0.016581602
0001b0 ed 14 20 3d db 38 ec bc a0 a7 6a bd fd 87 13 bd
       0.039082456 -0.028835705 -0.057288766 -0.03601836
0001c0 3b d5 91 3d 0a 04 8e bd 6a 66 a4 3d af 8d 7f 3d
       0.071207486 -0.06934364 0.080273464 0.06239098
0001d0 e8 60 6c bd cd 57 c4 bc ff ef 24 3d 95 26 4e bd
       -0.057709605 -0.023967648 0.04026794 -0.050329763
0001e0 40 69 a5 bd 1d 33 13 3d 1c 27 2d 3b d4 dc 81 bd
       -0.080767155 0.035937417 0.0026421016 -0.06340948
0001f0 4a 08 63 3c 74 35 b9 3b 58 2c 23 3d f2 d3 95 3c
       0.013856957 0.005652124 0.03983721 0.01828954
000200 34 43 bc bc a3 2a e5 3c 11 35 13 bd ea e9 64 3c
       -0.022981264 0.027974432 -0.03593928 0.013971785
000210 bf 3f 8d bd 94 9a 5b bd c3 ae 01 bd c3 dc 72 bd
       -0.06896924 -0.053614214 -0.031660806 -0.059292566
000220 fa 44 8b bd 94 e4 b8 3b fa 6c 0a 3d 91 a1 dc 3b
       -0.068002656 0.005642483 0.033795334 0.0067331274
000230 51 c6 6f 3d 02 9f 51 3d 0e 3d f0 3b 27 82 80 bd
       0.05853874 0.051177032 0.007331497 -0.062748246
000240 30 43 17 bd cc 6d 7d 3c 6a 30 92 3d 75 5c 00 bd
       -0.03692931 0.015468072 0.071381405 -0.031338174
000250 a9 69 2a 36 5c c1 59 bd a5 93 2c 3d f4 5e 9b bc
       2.5393476e-06 -0.053162917 0.042132992 -0.018966176
000260 c1 04 8a bd 41 69 d1 bc cb 69 21 3d a6 3d 42 3c
       -0.06739188 -0.025562884 0.039407533 0.011855518
000270 cd 56 52 3c a6 08 27 3d d8 7e a1 3d 78 57 99 3d
       0.012838078 0.040779732 0.07885522 0.074873865
000280 45 79 a8 3a 99 bf 08 bd a5 a8 57 bc 0b e1 4d 3d
       0.0012853524 -0.033385847 -0.013162767 0.050263446
000290 23 2c b3 3d bd bc 90 bd f6 c7 4b 3d 94 e9 0b 3d
       0.08748653 -0.07067249 0.049751244 0.034158304
0002a0 2a 4c ac 3d d9 26 7e bd cc 89 9c 3c fe 67 ac bc
       0.08412965 -0.062048767 0.019108675 -0.021045681
0002b0 5d 27 7b 3c 4b 04 b4 bd 68 71 30 3d 32 d1 9d 3d
       0.015329209 -0.08789881 0.043076903 0.077059165
0002c0 ad ae 07 3d a1 2c 96 3d 37 b8 43 bd 2d bb bb 3c
       0.03312557 0.07332731 -0.047783103 0.0229164
0002d0 97 c0 97 bd 3c 03 05 bd 95 1e 0b 3d 5d a6 8a 3d
       -0.074097805 -0.032473788 0.033964712 0.067700125
0002e0 d4 1a 86 bc 42 e3 95 bd cf ef 3b bd c6 44 af 3c
       -0.016370215 -0.073187366 -0.045882996 0.021395098
0002f0 b1 19 08 bd 30 33 9e bc 25 d8 86 3d c5 ef 8c 3b
       -0.033227626 -0.019311517 0.06584195 0.0043010437
000300 21 d3 a5 3d 1c b9 39 bd 0a 32 dd bc 68 54 7d 3d
       0.0809691 -0.04534255 -0.0270014 0.061848074
000310 c5 07 f6 3c 98 19 45 3d 87 b1 35 3c 76 cb b0 3d
       0.030033002 0.04812011 0.011089689 0.08632557
000320 13 46 b1 bd 65 a5 84 3d 5c 85 56 3c a2 92 84 bd
       -0.08655944 0.06476859 0.013093319 -0.064732805
000330 db c3 ab bd 8b 6b 53 bd d0 37 cf bc 97 f3 b2 bb
       -0.08386966 -0.051616233 -0.025295168 -0.005461167
000340 4c 42 ef ba 7e b5 81 3c c0 99 a2 bd c3 aa 98 bc
       -0.0018254011 0.015833613 -0.07939482 -0.018636113
000350 a1 54 83 bc 79 d5 89 3d 8c 12 4d bd f5 20 4e 3d
       -0.016031565 0.0673017 -0.050066516 0.0503244
000360 f8 61 84 3c bd 22 3d bc 42 9a 44 bd a5 e9 aa 3a
       0.016159996 -0.011543927 -0.047998674 0.0013039602
000370 af 94 9a bd a0 de 87 bc d7 0e 26 3d 5b 8f 5f 3d
       -0.075478904 -0.016585648 0.040541496 0.054580074
000380 1b f6 a2 bc 90 85 77 3c dd 71 94 3b d9 e8 3b bd
       -0.019892743 0.015107527 0.004530175 -0.045876358
000390 db d8 1d bd 89 c2 6d 3d 62 69 67 bd db dc 64 bd
       -0.038536888 0.05804685 -0.056496985 -0.055874687
0003a0 5f c9 a0 3c 8d 7f de 3c 1e 08 ae 3d 76 46 8d bd
       0.019627271 0.02716043 0.08497642 -0.06898205
0003b0 35 2f 93 bd 95 17 b3 bd f4 3b a3 3d 28 87 9c bd
       -0.071867384 -0.08744732 0.079704195 -0.076429665
0003c0 94 d4 97 3d ef ed 85 bd 63 81 3c bd 33 fc 47 3d
       0.07413593 -0.06539523 -0.04602183 0.0488245
0003d0 33 bd 2c 3d f8 10 22 3d ef 1c 87 3d f2 5f bd bc
       0.042172622 0.039566964 0.065973155 -0.02311704
0003e0 eb 8c 19 3d 16 e5 d1 3c 9e 8b ea 3b 37 c6 0e 3c
       0.037487905 0.025621932 0.007157757 0.00871425
0003f0 45 d7 8b 3c fb 30 26 3d ad 01 98 3b 20 36 57 bd
       0.017070422 0.040574055 0.0046388716 -0.052541852

architecture.layers.1.bias f4 [64]
000000 3f 5a 7c 3d 5f 1f 43 bd 29 56 b4 bd 0f 8e 84 bd
       0.061609503 -0.04763734 -0.08805496 -0.06472408
000010 07 1c 0b 3d e6 db 9a 3d 61 73 4c bd 25 bf 8d bd
       0.033962276 0.075614735 -0.04991472 -0.069212236
000020 5a d9 b3 3d 33 b6 83 3d 27 63 43 3d ae 51 81 3a
       0.08781691 0.06431236 0.04770198 0.0009866261
000030 47 b3 7c 3d 52 2b 8b bd 3f 6b 48 3d ef 7c e4 ba
       0.06169441 -0.06795372 0.048930403 -0.0017432253
000040 cb 6c b3 3d a5 ca fa bc 22 43 91 bd c0 40 cd 3a
       0.08760985 -0.030614207 -0.07092883 0.0015659556
000050 e1 dd 9c 3d c3 9c a7 3d 6f 74 8d 3d 70 b3 b4 bd
       0.076595075 0.08184197 0.069069736 -0.088232875
000060 69 b8 72 3d e1 30 b5 bc ff 78 2a 3d 00 e2 3f ba
       0.0592579 -0.022118034 0.041619297 -0.00073197484
000070 6b 53 26 3d d7 df 10 3c a1 8c 9b bc 53 af 5e bd
       0.040606897 0.00884243 -0.018987956 -0.05436642
000080 aa 13 a0 3b f9 67 ab 3c 63 6d 71 3d 17 06 91 3c
       0.0048851566 0.020923601 0.05894221 0.0177031
000090 cc f9 37 bd 1d 97 99 3d 88 ac 57 bc db 9d 3a 3c
       -0.04491596 0.07499526 -0.013163693 0.011390175
0000a0 53 df 50 3d 9a f6 f0 3c dd de 28 bd cb a2 b2 bd
       0.05099423 0.029414464 -0.041228164 -0.087224565
0000b0 81 ce 7b 3d 99 ba 55 3c 25 13 07 bd 75 33 7c bd
       0.061476234 0.013044977 -0.032977242 -0.06157251
0000c0 95 19 71 3c b2 28 5c bd e9 cf 59 bd e6 2a 66 3d
       0.014715572 -0.053749748 -0.053176794 0.056193255
0000d0 06 c1 9f 3c 96 2e 1d 3d a9 ff 92 bd 38 88 04 bb
       0.01950122 0.038374506 -0.071776696 -0.0020222794
0000e0 9f 64 15 bd 25 8f 5f bd b7 50 0a 3d a4 16 99 bd
       -0.036472913 -0.054579873 0.033768382 -0.074750215
0000f0 cc 25 33 bc 08 1e 72 bd 0d e2 af bd 86 1d 83 3d
       -0.010934304 -0.05911067 -0.08588038 0.064021155

architecture.layers.2.weight f4 [3, 64]
000000 32 75 e3 3d 58 d3 b0 3c e8 d8 69 bd a6 58 df bd
       0.111063376 0.021585152 -0.057091624 -0.1090558
000010 6a b7 a1 bd dc 71 a2 3d c2 a1 86 bd 20 b9 82 3c
       -0.078963116 0.07931873 -0.065738216 0.015957415
000020 60 47 48 3d 90 25 7d bc 90 da 4b 3d 40 7a 72 bb
       0.048896194 -0.01545085 0.049768984 -0.0036999136
000030 d2 25 d2 bd c8 c3 f0 bc 7c d4 e2 bd 28 58 e0 3d
       -0.1026112 -0.02939023 -0.110756844 0.109543145
000040 a8 46 02 3d 10 0e 6d 3c 20 00 53 bc e8 ff 80 bd
       0.031805664 0.014468685 -0.012878448 -0.0629881
000050 5e 56 c8 bd 96 8a dd bd 74 5d 80 3d 00 19 b7 3a
       -0.09782098 -0.10817449 0.06267825 0.0013969243
000060 e8 db 1d 3d 10 f4 07 3c 52 c4 8f 3d 6c 6b fb bd
       0.038539797 0.008297935 0.07019867 -0.122763485
000070 4a cb b8 3d 42 99 ac bd 42 a5 c9 bd 4a 26 e7 3d
       0.09023149 -0.08427669 -0.098459736 0.112866
000080 b2 e0 b6 bd 90 b4 76 3d 5a 07 d8 bd c4 e1 db 3d
       -0.08929576 0.06023079 -0.10548277 0.10736421
000090 44 77 86 bd b0 cf 24 3c b0 f1 7f bd 68 0a ed bd
       -0.06565717 0.010059282 -0.06248635 -0.115742505
0000a0 8a 65 fe bd 38 10 a8 3d d0 4e db bd 50 09 69 3d
       -0.12421711 0.082062185 -0.10708392 0.056893647
0000b0 d0 85 84 3d c0 24 0f bb 70 e3 7c bd b0 c0 aa bd
       0.06470835 -0.0021841973 -0.06174034 -0.083375335
0000c0 8c 24 99 3d 62 e6 c4 3d c0 79 cc 3b a0 2a 58 3d
       0.07477674 0.096142545 0.0062400997 0.052775025
0000d0 fe cc c7 bd e8 dc f0 bd 64 0b b8 bd 34 09 6a bd
       -0.09755896 -0.117608845 -0.089865476 -0.057137683
0000e0 d0 33 60 bc 74 26 90 bd d6 3e b9 3d 18 36 79 3d
       -0.013684228 -0.07038584 0.09045188 0.060842603
0000f0 f8 94 fe bd f4 b5 56 bd ee d1 d4 bd b0 dc 89 3d
       -0.12430757 -0.052419618 -0.103916034 0.06731546
000100 86 80 8a bd d6 12 ea 3d a2 78 ce 3d 1c 5a 91 3d
       -0.06762795 0.11429374 0.10081603 0.07097265
000110 62 5c c5 bd aa 88 b0 3d 4c 10 c7 bd 28 7f 14 3d
       -0.09636761 0.086198166 -0.09719905 0.03625408
000120 bc 11 f6 3d 5c fd 6e 3d 48 f6 89 3c f0 50 35 bd
       0.12015101 0.05834709 0.016841069 -0.04426664
000130 5a 5e d2 3d 38 35 c1 bd 9c b5 c4 3d 76 80 fa 3d
       0.102719024 -0.09433979 0.09604952 0.12231533
000140 c0 4f e1 bb f4 3e fd bd 74 1d ea 3d 6c e0 63 3d
       -0.006875962 -0.12365523 0.11431399 0.055633947
000150 62 10 c1 3d 0c 77 0a 3d 50 c8 64 3c 80 b6 a5 bc
       0.09426953 0.03380494 0.013963774 -0.020228624
000160 38 19 9a bd 34 d4 c0 bd 00 96 37 3c ce 00 e7 bd
       -0.07524341 -0.094154745 0.011205196 -0.1127945
000170 10 e9 72 bd b2 8e 80 bd 54 84 3a 3d 20 d1 d8 3d
       -0.059304297 -0.06277217 0.045536354 0.105867624
000180 3c 15 d7 bd 48 d2 81 3d 0e a3 e7 bd c8 0f 43 3d
       -0.10502097 0.06338936 -0.11310397 0.047622472
000190 80 e4 fe bb 00 46 a5 bb 0a 35 b1 bd 00 df a0 ba
       -0.007778704 -0.005043745 -0.086526945 -0.001227349
0001a0 7a 2f aa 3d 30 78 f5 bc 98 b1 fe 3d 60 91 55 3d
       0.08309837 -0.029964536 0.12436217 0.052140594
0001b0 d8 a5 c9 bd bc 18 16 3d d8 b1 eb bc a8 b6 f5 bd
       -0.09846085 0.036644682 -0.028771326 -0.119977295
0001c0 00 29 d9 3b f8 df 27 3d 78 d9 9d bd d2 4c e4 bd
       0.006627202 0.040985078 -0.077074945 -0.11147465
0001d0 80 57 84 3b 9a 0b fa bd 08 a9 45 3d da 8a 91 bd
       0.004038751 -0.12209244 0.048256904 -0.07106562
0001e0 90 4b fb 3c 64 24 ae bd 88 0f 62 bd 08 b8 35 3d
       0.03067568 -0.08503035 -0.055190593 0.04436496
0001f0 02 b8 95 3d c0 e0 66 bd 1c aa 81 3d 6c 93 a8 3d
       0.07310487 -0.056366682 0.06331274 0.082312435
000200 c8 4b b7 3d 38 06 ea 3d d8 59 9c 3d 8c 95 aa bd
       0.08950001 0.114269674 0.07634324 -0.08329305
000210 04 74 87 3d 08 f6 fb bd 1a 05 b3 bd e0 d6 67 3d
       0.06613925 -0.12302786 -0.087412074 0.056601405
000220 fe cf c1 bd 80 c6 ec 3b 16 e8 9d bd 44 3e f5 bd
       -0.094634995 0.0072258115 -0.077102825 -0.11974767
000230 84 14 7f 3d 80 fd fc 3c f8 9e 78 bd 50 4f a1 bd
       0.062275425 0.030882597 -0.06069848 -0.07876456
000240 90 19 52 bc 24 17 89 3d 76 30 c0 bd 80 60 83 bb
       -0.012823477 0.06693867 -0.09384243 -0.0040093064
000250 98 91 b3 3c 6e 36 ab 3d c8 8c 06 bd 80 99 46 3d
       0.02192001 0.08359991 -0.032849103 0.048486233
000260 1c fc 9e 3d 08 5a be 3d bc ae 2b bd 3c d6 85 bd
       0.0776293 0.09294516 -0.041914687 -0.065350026
000270 4e d3 a9 3d 86 c7 b1 3d 10 8e 1c 3d 74 94 80 bd
       0.08292256 0.08680634 0.03822142 -0.06278315
000280 60 0a 9e 3b 3e 3d 8d 3d d8 b8 84 3d 60 13 8f bd
       0.004823014 0.06896447 0.06480569 -0.06986117
000290 74 6a 5e bd 0e d7 b8 bd 70 26 17 3d 44 52 f3 3d
       -0.05430074 -0.090253934 0.03690189 0.11880925
0002a0 20 02 57 3c 00 40 69 39 4c cf f9 3d 14 6d 60 3d
       0.013123065 0.00022244453 0.12197742 0.054791525
0002b0 82 5a de 3d 26 26 dd bd b8 79 9e bd 88 2a f6 3c
       0.10857107 -0.10798292 -0.0773806 0.030049577
0002c0 5c 5a 06 3d e0 c8 7b bd 10 e7 de bd 60 13 7c 3c
       0.032801017 -0.061470866 -0.108839154 0.015385479
0002d0 40 1b 60 3b 36 c9 ab bd ca 0b cf 3d 44 73 01 bd
       0.003419593 -0.08387987 0.101096705 -0.031604066
0002e0 30 b9 b7 3c 40 e8 66 3c 2c 31 ce bd 30 e3 c6 3c
       0.022427171 0.014093459 -0.100679725 0.024278253
0002f0 f4 7c 28 bd e0 e1 83 bb 38 28 a1 3d fc 52 2a 3d
       -0.04113479 -0.004024729 0.07868999 0.041583046

architecture.layers.2.bias f4 [3]
000000 70 f1 c1 bc 80 4d 07 bb d8 f6 cd bc
       -0.023674697 -0.0020645559 -0.025142118

posterior.mu_weights.0 f4 [128, 45]
000000 48 db b8 bc 0b 8e 8a 3d 9a 16 15 3d af f1 a9 bd
       -0.022565499 0.06765374 0.036398508 -0.082980506
000010 f1 c6 84 3d d3 f7 70 bd 7e 34 89 bd 8c 6a 05 bb
       0.064832576 -0.058830094 -0.06699465 -0.0020357696
000020 7c ea ba bd db 36 f4 3c b6 d4 5d 3d 38 c1 8d bc
       -0.091267556 0.029811313 0.054157935 -0.017304048
000030 f0 5d a0 3d 85 5c 24 39 70 50 b5 3d a0 d1 84 3d
       0.07830417 0.00015674725 0.08853233 0.06485295
000040 07 8b 67 bb a1 0d 0e be a6 2c fd bd b1 75 cf 3d
       -0.003533067 -0.13872387 -0.12362032 0.1012987
000050 76 02 0e be f6 41 88 bb 1d 20 22 bd d2 47 fa 3b
       -0.13868126 -0.004158254 -0.039581407 0.007637956
000060 e0 d5 33 bd a9 2e 0e 3e 53 03 fa bc 1b f2 f9 3d
       -0.04390514 0.13884987 -0.030519163 0.12204381
000070 1a b5 6c bc 09 65 d5 bd 4b 4d 1f 3d 15 39 2e 3d
       -0.014447475 -0.104196616 0.03889207 0.042534906
000080 8a 8f 2b bd bf d3 9a bd dc 1b 18 bd 43 d2 34 bd
       -0.041884936 -0.075599186 -0.037135944 -0.044145834
000090 2a f1 46 3b f8 0f c1 3c 62 3d d4 3d 3b 3e ea bd
       0.0030356147 0.023567185 0.1036327 -0.11437651
0000a0 06 85 e0 bd f1 72 c5 bd 47 41 85 ba 20 a6 aa bd
       -0.10962872 -0.09641064 -0.0010166549 -0.08332467
0000b0 10 03 b2 3a 97 94 9b 3c d8 10 f6 3d 65 b8 9f bd
       0.0013581235 0.018991752 0.120149314 -0.07798842
0000c0 e1 74 d4 bd 9c b6 d8 3d 83 9a ab bd 02 93 39 bd
       -0.103738554 0.10581705 -0.0837908 -0.045306213
0000d0 45 1e ac bd 79 cd fa 3c 5f 09 40 bd 9e f9 b0 bc
       -0.08404211 0.030615555 -0.046883937 -0.021603402
0000e0 c7 c0 a0 bd 81 c3 0d be 25 a2 e9 bd 46 67 8f bd
       -0.07849269 -0.1384411 -0.1140788 -0.0700212
0000f0 41 66 98 bc 4e 63 c3 bd 5b b5 a5 bd 69 2e 6c bd
       -0.018603446 -0.09540425 -0.080912314 -0.057661448
000100 8c 26 f1 bd db 83 04 bc ef f7 29 3d 80 6c 8f bd
       -0.1177493 -0.008088077 0.041496214 -0.070031166
000110 16 66 5b 3b 1a 8d 02 3e af 63 3f 3d 63 9a f6 3b
       0.0033477596 0.12749138 0.046725925 0.0075257285
000120 09 53 e8 3c ec bc ce bd b6 3f ad 3d 47 3c 42 3c
       0.028359907 -0.10094628 0.084594175 0.011855192
000130 25 52 c7 bb 3a a2 11 bd 2c 40 97 3d f2 22 d8 ba
       -0.0060827904 -0.035555102 0.07385287 -0.0016489907
000140 f0 8e 0d bd 79 6b fc bd 3f d3 fd bc ff 5d e2 bd
       -0.034560144 -0.12325186 -0.030984519 -0.110530846
000150 ec 97 ed 3d 6b 55 b3 3c 8b 49 c9 3c ae 5d b8 3d
       0.116012424 0.021891316 0.0245712 0.09002243
000160 27 11 96 bd 2d 11 66 bc 1f 83 b1 3d 4a 4c f1 3b
       -0.0732749 -0.014042181 0.086675875 0.0073638307
000170 07 23 59 3d be 40 c6 3d fc 37 a6 ba 23 cb cc 3d
       0.05301192 0.09680317 -0.001268148 0.09999683
000180 35 fd c9 bc 18 05 eb 3d 2d f0 f8 3c 47 4a fe bc
       -0.024656871 0.11475581 0.030387962 -0.031041278
000190 20 e8 b6 3c 9c f2 bd 3b 14 aa 28 ba f4 14 d3 3d
       0.022327483 0.0057967436 -0.0006434035 0.10306731
0001a0 b7 75 d4 3d 7f fe 4b bd 5f 57 9e 3c 06 73 05 bb
       0.10374015 -0.049803253 0.019328771 -0.0020362749
0001b0 7e e7 40 bc 41 8a ee 3d d7 c4 bf bd ae d2 ef 3d
       -0.011773942 0.116474636 -0.09363716 0.11710106
0001c0 71 13 01 3e 34 5a a8 3d cf 1b e6 3d 76 43 4a bd
       0.12605073 0.0822033 0.11235773 -0.049380742
0001d0 45 2b d6 3d fc e4 06 3e bf 26 d0 bd e6 1d c3 bd
       0.10457472 0.13173288 -0.1016364 -0.09527187
0001e0 88 77 1b bd b8 c1 18 bd 69 fa fe 3d 89 5c bf 3d
       -0.03795579 -0.03729412 0.12450106 0.093438216
0001f0 0d d8 d4 3d 32 b0 4e bd db 3b b4 bc e6 26 61 bd
       0.10392771 -0.050461 -0.022001198 -0.054968737
000200 ca 0b b6 3c d8 9b 6a bd 27 2b f8 3d f4 d2 ef bc
       0.022222418 -0.05727753 0.12117606 -0.029275395
000210 bf c7 09 be e0 68 04 be 0b 54 c5 bb 16 d9 3f 3d
       -0.13455103 -0.12930632 -0.0060219816 0.04683789
000220 26 3d 88 bd f3 78 6a 3d 84 a2 0d 3e af 4f e3 bd
       -0.06652288 0.057244252 0.13831526 -0.11099183
000230 ca 52 05 3c 22 58 fb 3a 0e 32 b1 bd 7a 52 05 3d
       0.008137414 0.0019176046 -0.08652125 0.03254936
000240 79 93 7d bd f5 0a 06 be f0 82 08 3e 04 87 53 bd
       -0.06190822 -0.13090117 0.13331199 -0.051642433
000250 f0 0d 21 3d 6d 2a ba bb 77 19 da 3d 58 f6 ec 3b
       0.039319932 -0.005681327 0.10649388 0.007231515
000260 80 76 8f bd d0 f0 3a 3d 75 6b c0 bd f7 c6 77 b9
       -0.07005024 0.045639813 -0.09395496 -0.00023629876
000270 05 2e 9b bd 74 43 d0 3d 01 dd 04 ba d4 f6 d5 3d
       -0.07577137 0.10169116 -0.00050683325 0.10447469
000280 7e 6a dd 3d 1a 0f a3 3d a0 df db 3d 82 84 5d bd
       0.108113274 0.07961865 0.107360125 -0.054081447
000290 fa 00 01 3e 84 5e 58 3d 20 08 0b 3e 2d d9 06 be
       0.12598029 0.052824512 0.13577318 -0.13168783
0002a0 69 3b fc 3d ca ec 04 3e f0 51 62 bd c4 cd c6 3d
       0.12316019 0.12980953 -0.055253923 0.097072154
0002b0 0f 1d f4 3b 20 57 bf 3a e3 85 ab 3d 07 a8 ed 3c
       0.007449753 0.0014598109 0.08375146 0.029010786
0002c0 81 37 6f bd 31 86 c5 bc ca 43 5a 3d a8 28 df bd
       -0.058402542 -0.024111839 0.053287305 -0.108964264
0002d0 5e 53 87 bd 2f de 4a 3c 3d fa af 3d 2f 86 fe 3c
       -0.06607698 0.012382074 0.08592651 0.031069843
0002e0 ec 64 3b 3d 65 7b 6a 3d 6a e0 59 bd f5 60 c2 bd
       0.045750543 0.057246584 -0.053192534 -0.09491149
0002f0 15 16 ef bd d1 8e 42 3d 0b 8a 04 be a8 ec 98 bd
       -0.11674134 0.04749948 -0.12943284 -0.074670136
000300 2f 16 52 3d 44 e1 09 be 57 1f de 3d 83 55 a8 bd
       0.051290687 -0.13464838 0.10845821 -0.08219435
000310 98 82 2a 3d 5c 20 88 3b bb e9 6f 3d 02 29 ac 3d
       0.04162845 0.004154248 0.058572512 0.08406259
000320 04 5c 80 bd a6 3e 65 bd 1c 8d f5 3d 67 38 83 3d
       -0.062675506 -0.05596795 0.11989805 0.06407242
000330 81 fc 03 3e 1f 81 fb bd 18 b8 87 bd ed ef 13 3d
       0.12889291 -0.12280487 -0.0662691 0.036117483
000340 08 f2 d6 bd 4a 45 0a bd b8 75 92 bd 09 6d 68 bd
       -0.104953825 -0.033757485 -0.07151359 -0.05674461
000350 6b cc 0a be a3 71 8d bd ab 68 b6 3d 51 52 c5 bd
       -0.13554542 -0.0690644 0.089066826 -0.09634841
000360 40 21 b3 bd 3c 4d 87 bd c6 8b b1 3c de 90 e4 bd
       -0.08746576 -0.06606528 0.021673094 -0.11160444
000370 6e 81 c3 38 0f e7 a4 3a 8c 2b f5 3d 48 90 bd bb
       9.322433e-05 0.0012581068 0.119711965 -0.005785022
000380 2e 87 2b 3d 90 18 32 bc 40 d5 ed bd 65 bf a6 bd
       0.041876964 -0.010870114 -0.1161294 -0.08141974
000390 36 ae 67 3c e2 1c a4 3d 11 41 23 bd 36 30 36 3d
       0.014140656 0.080133215 -0.039856974 0.04447957
0003a0 32 a2 0b be 99 d9 dd 3d 41 8c eb bc 2c 57 bc bd
       -0.13636091 0.10832519 -0.028753402 -0.09196314
0003b0 f5 e9 14 bd 59 e4 c2 3b 64 b2 44 bd c2 01 a0 bd
       -0.03635593 0.0059476313 -0.04802169 -0.07812835
0003c0 5c 56 dc bd 77 f1 e9 3d 32 f3 5f 3d d0 8e 0c 3e
       -0.10758659 0.11423009 0.05467529 0.13726354
0003d0 8b 97 fd 3c 86 31 aa 3d a9 c1 e2 3d e6 f9 0c be
       0.03095605 0.08310227 0.11072094 -0.13767204
0003e0 79 f1 85 3c 64 10 47 3d 6b 15 b1 bc f1 e4 4f bc
       0.016350495 0.048599616 -0.021616658 -0.012688861
0003f0 af e0 12 3d 5c d7 cf 3d 15 82 8f 3d 56 4e de bd
       0.035858806 0.101484984 0.07007233 -0.10854785

posterior.mu_weights.1 f4 [64, 128]
000000 16 6e 97 bd f8 fa e9 3c e0 fc 60 bd f4 8d c1 bc
       -0.07394044 0.028562054 -0.05492866 -0.023627259
000010 79 20 ff 3b e9 57 d2 bc c4 5e 83 bd 56 eb 0b bd
       0.0077858535 -0.025676684 -0.064145595 -0.03415998
000020 0c 1d 94 3d c9 31 00 bd 4f a6 99 ba d9 45 c1 ba
       0.07232103 -0.03129748 -0.0011722537 -0.0014745548
000030 13 d0 21 bd a4 83 3c 3d 58 70 5c 3d bf 68 6a 3d
       -0.039505076 0.04602398 0.053818077 0.0572288
000040 3c 0c 44 39 cc b6 8c 3d bd 94 6a bd 93 2f bf 3c
       0.00018696574 0.06870803 -0.057270754 0.023338115
000050 e1 de f2 3c 5c 90 f1 3c c4 70 25 bd 40 95 75 bd
       0.029647293 0.029487781 -0.040390745 -0.05995679
000060 2d b2 8e 3d a0 ca 9b 3b 9f 46 42 39 3a 3b e0 3c
       0.06967578 0.0047543794 0.0001852759 0.027371991
000070 ae 30 cd bc b6 f4 68 3d 47 5b 61 bb aa dc ef 3a
       -0.025047626 0.056874 -0.003438668 0.0018300016
000080 5f bd 81 3d 35 5e 9e bd 6e af 37 3d 5b 72 07 3d
       0.06334948 -0.07732812 0.044845037 0.033068042
000090 1e aa 8d 3d 2a f0 70 bd 05 44 44 3d dd a3 51 bd
       0.06917213 -0.05882279 0.04791643 -0.051181663
0000a0 03 58 f2 b9 42 76 7b bd a9 5a 02 bd 18 7f 47 b9
       -0.0004622341 -0.061392076 -0.03182474 -0.00019025465
0000b0 79 ae d6 3c e6 8c e2 bc e3 0c 14 ba f8 58 cb bb
       0.026206242 -0.027655076 -0.0005647672 -0.0062056743
0000c0 b5 c5 a7 3c ff ec 89 bc 45 a7 56 bd 09 12 66 bd
       0.020480016 -0.016836641 -0.052405614 -0.056169543
0000d0 fa 3a 87 3d cd d3 9a bd 27 35 a3 39 bf 16 8a 3d
       0.06603046 -0.07559929 0.00031129384 0.0674262
0000e0 6b 22 88 ba 0c e7 04 bb 2c 6d 2d 3d 33 7c 63 3a
       -0.0010386234 -0.0020279316 0.042340443 0.000867787
0000f0 ef 63 9d 3d 19 c7 8a 3a 46 15 ad b9 64 86 5e 3d
       0.076850764 0.00105879 -0.0003301298 0.054327384
000100 44 40 b9 bb 1c f2 66 3d 17 e1 dc 3b 43 74 26 bd
       -0.005653413 0.056383237 0.0067407 -0.04063822
000110 fb 88 33 bd bc b9 73 3d ce 00 35 bd ba 75 11 3d
       -0.043831807 0.059503302 -0.04419022 0.035512663
000120 d2 5d a8 3c b1 3e 9a bb d6 50 45 bd 58 71 c4 bb
       0.02055255 -0.0047071804 -0.048172794 -0.005994957
000130 b0 e7 82 bd 0a 56 cd b8 87 bc 99 3c 1f a3 87 39
       -0.06391847 -9.791188e-05 0.018766655 0.0002587074
000140 18 88 17 3c e7 03 9d 3c 32 7c 45 3c 7e 84 1b bb
       0.009248756 0.0191669 0.012053536 -0.0023730095
000150 f7 50 b2 bc db eb 40 ba 95 2a 57 bd 5a 58 61 ba
       -0.021767123 -0.0007359364 -0.052530844 -0.0008596234
000160 54 c5 e5 b8 7b 26 94 3c 99 08 98 bc a9 db b0 3b
       -0.00010956326 0.018084755 -0.018558787 0.0053972793
000170 cf e1 b6 bc 58 f5 54 3d 1f b8 6a 3d af be 91 3d
       -0.02232447 0.05199179 0.057304498 0.07116448
000180 b3 13 90 bb 93 8c 28 bd 58 87 89 3d 6a 71 7b bd
       -0.0043968796 -0.041149687 0.06715268 -0.061387457
000190 c1 3f e6 bc 4d ab 9d 3d 6d 3b a0 bd 7a 39 19 bd
       -0.028106572 0.07698689 -0.078238346 -0.03740833
0001a0 37 7f f8 bb 66 69 9b bd d1 02 fc 3c ad 45 87 3d
       -0.0075835246 -0.075884625 0.030763062 0.066050865
0001b0 ce 3a 26 bd e9 22 2e bd ef 5f 05 3b 85 bd 8b bd
       -0.040583424 -0.04251376 0.002035137 -0.06823257
0001c0 53 d3 d1 bc bf 6e 45 bd e4 e1 03 3b 6b 9d 6d 3d
       -0.025613463 -0.04820132 0.0020123655 0.058011454
0001d0 83 b5 ce 3b 7b 63 a0 3d 47 83 83 3d 99 02 1d 3d
       0.006308259 0.078314744 0.064215235 0.038332555
0001e0 61 d1 b8 3c ff 5d f5 bb f3 e7 67 bd 52 ef 8f bc
       0.022560777 -0.007488012 -0.05661769 -0.017570172
0001f0 e9 19 11 bc 38 b7 83 3c c8 3b 55 3d 6f 35 d9 bc
       -0.008856275 0.016078576 0.052058965 -0.026514737
000200 22 e5 6c bc 44 0b aa 3c cf 8a 5d bc 8b 26 03 bc
       -0.014458926 0.020757325 -0.013521864 -0.008004795
000210 35 81 82 bd 1f 64 5e 3c 87 be 7b bd fd 52 f7 bc
       -0.063723005 0.013573675 -0.061460998 -0.03019094
000220 cd 97 0d bc 5d 5b f6 3c c9 29 43 3c 8f fc 23 3d
       -0.008642149 0.030072862 0.011911818 0.04003578
000230 e0 c4 fd ba 21 68 3a 3d 2f 42 17 bc 17 85 6b bc
       -0.0019361041 0.04550946 -0.009232088 -0.014374993
000240 aa 5e e7 bb 53 d6 00 bc 6c a4 da 3b ef 62 0c 3d
       -0.0070608454 -0.007863599 0.0066724326 0.034274038
000250 10 80 2b 3d de e2 95 3c c4 68 33 3d 16 76 6b bd
       0.041870177 0.018296655 0.043801084 -0.057485662
000260 c5 44 44 bc 6f 39 83 3d 9a 9b 85 bb a4 e0 92 39
       -0.011979287 0.06407439 -0.004077387 0.0002801466
000270 de 5a 46 bd 19 1f 97 bd 1d 8e f2 bb ab f7 97 bd
       -0.0484265 -0.07378978 -0.007402195 -0.07420286
000280 07 92 ce bc ec c8 22 bd 3f a9 cc bc 82 78 47 3d
       -0.025216116 -0.039742395 -0.024983047 0.04869891
000290 18 fa 8f 3b c0 2f a1 ba ae 46 95 3d 46 84 a5 3a
       0.004393827 -0.0012297556 0.07288872 0.0012627922
0002a0 82 82 5b 3b bb 9d 9a 3d 68 4d 8a 3d fb e5 5c bd
       0.0033494537 0.07549616 0.06753045 -0.053930264
0002b0 a3 5d 81 bd f7 c2 00 3d 9b 46 f8 3b 07 f9 ea 3b
       -0.06316688 0.031435933 0.007576776 0.0071707997
0002c0 54 7e 58 3d dc a5 ba ba 39 19 53 bd 1b 71 90 3c
       0.05285485 -0.0014240104 -0.051537726 0.017632058
0002d0 5a 1a 46 3d 3a f9 77 bd 5b 8c e6 3a 36 c2 40 bc
       0.048364975 -0.060540415 0.0017589437 -0.0117650535
0002e0 ef 8d 35 3d a2 f9 87 3d 76 1f 9a 3d e0 76 96 3d
       0.04432481 0.066394106 0.07525532 0.07346892
0002f0 2e 08 63 bd 29 66 c8 bc c2 3d 1e ba 71 4a de 3a
       -0.055427723 -0.024462776 -0.00060364243 0.0016959441
000300 89 cc 84 3d c1 fa 75 3d ff 4a 92 bd dc 6e 1f 3d
       0.064843245 0.06005359 -0.071432106 0.038924083
000310 85 6c df 3c 93 d1 0d bd fe c5 82 3d 8f e0 31 bb
       0.027273426 -0.034623694 0.0638542 -0.0027141904
000320 70 77 57 bd c1 34 4e 3c 78 61 20 bd 8e 6c 95 3d
       -0.05260414 0.01258582 -0.039155453 0.07296096
000330 b1 bb 6f bc 40 c9 e3 3a 85 cd 78 3c bd e5 50 bd
       -0.014632151 0.0017378703 0.015185718 -0.051000345
000340 49 73 34 3d 7d e1 7c bd 92 cf 87 bd 47 e2 3b 3c
       0.044055257 -0.06173848 -0.06631388 0.011467523
000350 9b 99 3d bc 66 1f c5 3c 8e b7 ce bc 95 c9 80 bc
       -0.011572267 0.024062824 -0.02523401 -0.015721122
000360 0f d0 2d 3d c5 5a 58 bd 00 bb 8a 3c 35 75 4b bd
       0.04243475 -0.05282094 0.016934872 -0.049672324
000370 62 26 96 3d 57 f9 7f 3c 43 2b f3 bc 0d 62 b6 bc
       0.0733154 0.015623412 -0.029683715 -0.022263551
000380 8d 99 d5 bc 9e 23 4b 3c 58 71 05 3b d0 0e 6f 3c
       -0.026074195 0.0123986285 0.0020361748 0.014590934
000390 5a 7f d5 bc a3 a1 42 3d 9a 42 67 ba 72 43 ab 3a
       -0.026061703 0.04751743 -0.0008821875 0.0013066365
0003a0 72 61 b3 3c e2 1f 03 bb ec ed 9a bc 04 4e 61 3d
       0.021897051 -0.0020008017 -0.018912278 0.055006042
0003b0 b9 b1 c0 bc fb 81 50 3a 6a 08 d6 3c e5 e9 78 3d
       -0.023522245 0.0007953939 0.026127059 0.060769934
0003c0 46 fa e1 3c 3b ce 32 3d 32 de 93 bd ea 65 c4 3c
       0.02758516 0.043653708 -0.07220115 0.023974378
0003d0 39 86 83 3c d1 cc 74 bd 75 e4 e6 bc 46 6b 45 3a
       0.016055213 -0.05976564 -0.028185109 0.00075309386
0003e0 96 51 62 bd 1b 37 a0 39 d8 97 3e bc 5a 2e 38 3c
       -0.055253588 0.00030558635 -0.011632882 0.01124152
0003f0 71 bd 59 bd 12 7b ff bb 76 14 fc 3c 8f b7 b8 bc
       -0.05315918 -0.0077966535 0.030771475 -0.022548465

posterior.mu_weights.2 f4 [3, 64]
000000 f3 79 90 3d 84 35 ea 3d 86 4c d4 3d d0 d0 cc bd
       0.0705451 0.114359885 0.10366158 -0.10000765
000010 24 39 80 3c 75 df b3 3b 55 85 ee ba d3 09 2e bd
       0.015652247 0.0054892846 -0.0018197695 -0.042489838
000020 17 6c 85 3d ca 74 53 bd 05 14 21 3d a9 0f 1a bd
       0.06514757 -0.05162505 0.039325733 -0.03761259
000030 e5 d2 c2 3d 43 92 fa bc d0 b3 b6 3c 48 d7 15 bd
       0.09512881 -0.030587321 0.022302538 -0.03658226
000040 15 ad 27 bd f8 bf 1d 3d 70 cf 3f 3b 5a b4 bd 3c
       -0.04093655 0.038513154 0.002926793 0.023157287
000050 28 c0 75 bd ed 67 c6 3d bb 87 c0 bd bb fb 9b bd
       -0.059997708 0.09687791 -0.094008885 -0.07616373
000060 0b 13 7a ba d4 e7 d1 bd 21 8e 98 bd b1 2a 17 3d
       -0.0009539581 -0.10249296 -0.07448984 0.036905948
000070 a4 f6 94 3d 08 1d 01 3d a9 0a a1 bd 0d 3f 7a bd
       0.072736055 0.031521827 -0.078633614 -0.061095286
000080 b7 5c 7f 3d 5a b5 28 3a a0 4b 00 3a 54 b5 54 3d
       0.06234428 0.0006435715 0.00048940815 0.05193074
000090 68 13 6a bd 8c 02 24 3d 31 63 2d 3d 57 cc af 3d
       -0.057147413 0.04004149 0.042330924 0.085838966
0000a0 f0 df 27 3d 37 6a 19 3d 8d b3 88 bd 08 16 33 bc
       0.040985048 0.03745481 -0.066748716 -0.010930546
0000b0 47 7a 0f bc 4e d6 5a 3d d3 21 59 bd c5 7f 13 b9
       -0.0087571805 0.053427033 -0.053010773 -0.0001406661
0000c0 11 4f 7d 3c 0f 7c c3 3d 00 b4 e6 3d 6c 09 49 bd
       0.015460745 0.09545147 0.11264801 -0.04908125
0000d0 c6 78 05 3b ee 66 13 3d d2 44 9c bb 3f 67 b5 bd
       0.0020366176 0.035986833 -0.004768946 -0.08857583
0000e0 b8 2e ce bd f4 29 a3 3b 1d ad 18 3d cb 39 15 bd
       -0.10067505 0.0049793664 0.03727447 -0.03643207
0000f0 eb d7 fa bc 85 cc a3 3c 7a 34 11 3d 54 f7 8d 3d
       -0.030620536 0.019994983 0.035450436 0.0693194
000100 52 86 99 3d a4 f3 50 3a 3e 55 49 39 84 af 90 bd
       0.07496323 0.00079708756 0.00019200609 -0.07064727
000110 03 03 97 bd 75 60 91 bc 09 7e 47 bd f4 91 0e bd
       -0.07373621 -0.01774619 -0.04870418 -0.03480716
000120 d1 64 1a 3c 30 60 39 bc 1a be ad 3d 17 33 32 bd
       0.009423451 -0.011314437 0.084835246 -0.043505754
000130 27 e9 2e bc 7b a7 ba 3d 1f f7 61 bd df 22 1c bd
       -0.010675705 0.091139756 -0.055167314 -0.038119193
000140 cb f2 c0 bd 10 3e ce bd 91 df a5 bc 3f 2a eb bb
       -0.09421309 -0.10070431 -0.020248206 -0.007176667
000150 05 df 57 3d ee 3e d0 3c d7 5f b1 3d 1d 04 bc 3c
       0.052702922 0.025420632 0.08660858 0.02295118
000160 53 af 9f 3d f4 d7 da bc e1 ce 3a bd 69 dd b8 3d
       0.07797112 -0.026714303 -0.04560745 0.09026606
000170 32 a3 c7 bd a9 c5 36 3d 22 09 da bd b2 88 94 3d
       -0.09747924 0.044622097 -0.10646273 0.07252635
000180 e9 47 8b 3d 03 0a cc 3d f9 58 c2 bc 11 46 5b bd
       0.06800825 0.09962847 -0.023724066 -0.053533617
000190 a8 78 0c 3a d1 49 d9 bd db 0c c3 3d 1e 72 c9 bb
       0.00053585554 -0.106097825 0.09523936 -0.006147637
0001a0 b8 e6 af 3d 0d 89 51 bd c6 8b 9f b9 48 d8 97 3a
       0.08588928 -0.051156092 -0.00030430983 0.0011584843
0001b0 34 75 45 3a d3 ce ae bd 70 fb b3 3b 39 a3 1f bc
       0.0007532418 -0.08535542 0.00549262 -0.009743505
0001c0 6e e3 e1 3d cc fd 96 bd e8 7b 55 3b cd 6d d9 3d
       0.11029707 -0.07372627 0.0032575075 0.10616646
0001d0 41 af 07 bd bb ee 5a ba b2 5b d5 bc 9d 3e 9e bd
       -0.03312612 -0.00083516137 -0.0260447 -0.07726786
0001e0 f1 5a c5 3d ed 59 03 bb b7 19 c4 bd a6 06 46 bd
       0.09636486 -0.0020042614 -0.09575217 -0.048346184
0001f0 0a 49 ce bd a8 e0 bf 3c 7b 2f 8d 3d 70 a8 16 bd
       -0.10072525 0.023422554 0.06893822 -0.03678173
000200 4c 68 cc 3d 2c 76 5a bd 4e 2b e9 bc 2f bb 2a 3d
       0.099808306 -0.053335354 -0.028463032 0.04168242
000210 72 5a e5 3d a1 67 56 bd be 8d 2f bc 87 28 63 b9
       0.11198892 -0.052344922 -0.010714946 -0.00021663505
000220 3f b1 86 3d 1d ea 91 bd 22 18 eb 3d 29 72 99 bd
       0.06576776 -0.07124732 0.11479212 -0.074924774
000230 80 bd ce bd 45 d3 e6 3c 6f 2f c7 bd dd 00 1e bd
       -0.10094738 0.028176913 -0.09725844 -0.038575042
000240 6f cd 94 3c a3 5e 37 bd a9 06 3b bd 17 d5 48 bc
       0.018164365 -0.044767987 -0.04566065 -0.012257836
000250 fc 43 85 bd 8c 89 35 3d a2 be bf 3c 5a 17 98 3d
       -0.065071076 0.044320628 0.02340633 0.07426329
000260 bb 17 c4 3d 77 39 3f 3d 36 79 22 3d fd 2d cf 3c
       0.09574839 0.046685662 0.039666377 0.025290484
000270 60 07 c9 bd bb 91 4c bd 80 d6 98 3d 7c 1b 70 bc
       -0.0981586 -0.049943667 0.07462788 -0.01465499
000280 48 9a ae 3d 47 4a 5a 3c 8d 78 2c 3d e3 d7 de 3c
       0.085255206 0.013323373 0.042107154 0.027202552
000290 89 3e 37 b9 a1 3d e4 bb 50 08 8b bc 2f 60 f8 3a
       -0.00017475536 -0.0069653546 -0.016971737 0.0018949563
0002a0 f5 ba 51 3c 1f 30 a5 3d 45 d4 d9 3d 7d d8 7b bd
       0.012800922 0.08065819 0.1063619 -0.061485756
0002b0 48 b4 3f bd 6c 9d 80 3d a0 75 c9 bd e9 d0 8e bd
       -0.04680279 0.06280026 -0.09836888 -0.0697344
0002c0 ee ec f6 3c 79 ea dd ba 29 93 8c bd 77 a5 f9 bc
       0.030142274 -0.001693084 -0.06864006 -0.030474408
0002d0 2e 41 28 3c d2 cd ce 3c aa 9b e8 bc b0 df 04 bd
       0.010269446 0.025244627 -0.028394539 -0.032439888
0002e0 96 4a cf bd 21 fa 97 bc 09 60 bd 3d 9c 05 16 bd
       -0.10121648 -0.018551888 0.09246833 -0.036626443
0002f0 ea 70 3d bd 89 18 2f bd eb ed 91 bb a0 93 91 bd
       -0.04625026 -0.042748008 -0.004453411 -0.07108235

posterior.mu_biases.0 f4 [128]
000000 00 00 00 00 00 00 00 00 00 00 00 00 00 00 00 00
       0.0 0.0 0.0 0.0
000010 00 00 00 00 00 00 00 00 00 00 00 00 00 00 00 00
       0.0 0.0 0.0 0.0
000020 00 00 00 00 00 00 00 00 00 00 00 00 00 00 00 00
       0.0 0.0 0.0 0.0
000030 00 00 00 00 00 00 00 00 00 00 00 00 00 00 00 00
       0.0 0.0 0.0 0.0
000040 00 00 00 00 00 00 00 00 00 00 00 00 00 00 00 00
       0.0 0.0 0.0 0.0
000050 00 00 00 00 00 00 00 00 00 00 00 00 00 00 00 00
       0.0 0.0 0.0 0.0
000060 00 00 00 00 00 00 00 00 00 00 00 00 00 00 00 00
       0.0 0.0 0.0 0.0
000070 00 00 00 00 00 00 00 00 00 00 00 00 00 00 00 00
       0.0 0.0 0.0 0.0
000080 00 00 00 00 00 00 00 00 00 00 00 00 00 00 00 00
       0.0 0.0 0.0 0.0
000090 00 00 00 00 00 00 00 00 00 00 00 00 00 00 00 00
       0.0 0.0 0.0 0.0
0000a0 00 00 00 00 00 00 00 00 00 00 00 00 00 00 00 00
       0.0 0.0 0.0 0.0
0000b0 00 00 00 00 00 00 00 00 00 00 00 00 00 00 00 00
       0.0 0.0 0.0 0.0
0000c0 00 00 00 00 00 00 00 00 00 00 00 00 00 00 00 00
       0.0 0.0 0.0 0.0
0000d0 00 00 00 00 00 00 00 00 00 00 00 00 00 00 00 00
       0.0 0.0 0.0 0.0
0000e0 00 00 00 00 00 00 00 00 00 00 00 00 00 00 00 00
       0.0 0.0 0.0 0.0
0000f0 00 00 00 00 00 00 00 00 00 00 00 00 00 00 00 00
       0.0 0.0 0.0 0.0
000100 00 00 00 00 00 00 00 00 00 00 00 00 00 00 00 00
       0.0 0.0 0.0 0.0
000110 00 00 00 00 00 00 00 00 00 00 00 00 00 00 00 00
       0.0 0.0 0.0 0.0
000120 00 00 00 00 00 00 00 00 00 00 00 00 00 00 00 00
       0.0 0.0 0.0 0.0
000130 00 00 00 00 00 00 00 00 00 00 00 00 00 00 00 00
       0.0 0.0 0.0 0.0
000140 00 00 00 00 00 00 00 00 00 00 00 00 00 00 00 00
       0.0 0.0 0.0 0.0
000150 00 00 00 00 00 00 00 00 00 00 00 00 00 00 00 00
       0.0 0.0 0.0 0.0
000160 00 00 00 00 00 00 00 00 00 00 00 00 00 00 00 00
       0.0 0.0 0.0 0.0
000170 00 00 00 00 00 00 00 00 00 00 00 00 00 00 00 00
       0.0 0.0 0.0 0.0
000180 00 00 00 00 00 00 00 00 00 00 00 00 00 00 00 00
       0.0 0.0 0.0 0.0
000190 00 00 00 00 00 00 00 00 00 00 00 00 00 00 00 00
       0.0 0.0 0.0 0.0
0001a0 00 00 00 00 00 00 00 00 00 00 00 00 00 00 00 00
       0.0 0.0 0.0 0.0
0001b0 00 00 00 00 00 00 00 00 00 00 00 00 00 00 00 00
       0.0 0.0 0.0 0.0
0001c0 00 00 00 00 00 00 00 00 00 00 00 00 00 00 00 00
       0.0 0.0 0.0 0.0
0001d0 00 00 00 00 00 00 00 00 00 00 00 00 00 00 00 00
       0.0 0.0 0.0 0.0
0001e0 00 00 00 00 00 00 00 00 00 00 00 00 00 00 00 00
       0.0 0.0 0.0 0.0
0001f0 00 00 00 00 00 00 00 00 00 00 00 00 00 00 00 00
       0.0 0.0 0.0 0.0

posterior.mu_biases.1 f4 [64]
000000 00 00 00 00 00 00 00 00 00 00 00 00 00 00 00 00
       0.0 0.0 0.0 0.0
000010 00 00 00 00 00 00 00 00 00 00 00 00 00 00 00 00
       0.0 0.0 0.0 0.0
000020 00 00 00 00 00 00 00 00 00 00 00 00 00 00 00 00
       0.0 0.0 0.0 0.0
000030 00 00 00 00 00 00 00 00 00 00 00 00 00 00 00 00
       0.0 0.0 0.0 0.0
000040 00 00 00 00 00 00 00 00 00 00 00 00 00 00 00 00
       0.0 0.0 0.0 0.0
000050 00 00 00 00 00 00 00 00 00 00 00 00 00 00 00 00
       0.0 0.0 0.0 0.0
000060 00 00 00 00 00 00 00 00 00 00 00 00 00 00 00 00
       0.0 0.0 0.0 0.0
000070 00 00 00 00 00 00 00 00 00 00 00 00 00 00 00 00
       0.0 0.0 0.0 0.0
000080 00 00 00 00 00 00 00 00 00 00 00 00 00 00 00 00
       0.0 0.0 0.0 0.0
000090 00 00 00 00 00 00 00 00 00 00 00 00 00 00 00 00
       0.0 0.0 0.0 0.0
0000a0 00 00 00 00 00 00 00 00 00 00 00 00 00 00 00 00
       0.0 0.0 0.0 0.0
0000b0 00 00 00 00 00 00 00 00 00 00 00 00 00 00 00 00
       0.0 0.0 0.0 0.0
0000c0 00 00 00 00 00 00 00 00 00 00 00 00 00 00 00 00
       0.0 0.0 0.0 0.0
0000d0 00 00 00 00 00 00 00 00 00 00 00 00 00 00 00 00
       0.0 0.0 0.0 0.0
0000e0 00 00 00 00 00 00 00 00 00 00 00 00 00 00 00 00
       0.0 0.0 0.0 0.0
0000f0 00 00 00 00 00 00 00 00 00 00 00 00 00 00 00 00
       0.0 0.0 0.0 0.0

posterior.mu_biases.2 f4 [3]
000000 00 00 00 00 00 00 00 00 00 00 00 00
       0.0 0.0 0.0
