outputs/gating/final_gating.pth (torch, 181669 bytes, 18 tensors)

architecture.layers.0.weight f4 [128, 45]
0	0xbe031101	-0.12799455
1	0xbd6dfc3f	-0.05810189
2	0x3ca3650b	0.019945642
3	0xbd66dedb	-0.056364875
4	0xbe12e9e9	-0.14347042
5	0x3dee0321	0.116216905
6	0xbdc347d7	-0.09535187
7	0x3d6f6a54	0.05845101
8	0x3df90c75	0.12160579
9	0xbb53cb95	-0.003231739
10	0x3d87d270	0.06631935
11	0xbde106e1	-0.1098764
12	0x3c89e35a	0.016832042
13	0xbd899984	-0.06718734
14	0x3d042cfc	0.032269463
15	0xbc99193e	-0.018688794
16	0x3d139e17	0.036039438
17	0xbdb6b815	-0.089218296
18	0xbc3dad1d	-0.011576918
19	0x3de34c82	0.11098577
20	0xbd7c6fd7	-0.061630096
21	0x3cdf08ce	0.027225878
22	0x3da01c6c	0.07817921
23	0x3dfeb3c6	0.12436633
24	0xbd449214	-0.047990873
25	0xbdfbcdd1	-0.12295116
26	0x3db1b478	0.08677
27	0x3df497dc	0.119430274
28	0x3d873b41	0.06603099
29	0xbdfdf181	-0.12399579
30	0x3dd23510	0.10264027
31	0xbb6e5f7d	-0.0036372833
32	0x3e00d7e3	0.12582354
33	0xbe0d3a76	-0.13791832
34	0xbd750ebc	-0.059828505
35	0xbd93f02a	-0.07223542
36	0x3df3a0f6	0.11895935
37	0x3ccd3d4d	0.025053645
38	0xbdfd4133	-0.123659514
39	0x3e10a1ab	0.14124171
40	0xbdc39bde	-0.09551214
41	0x3c17ec01	0.009272576
42	0x3dfb0f7b	0.12258812
43	0x3e0108e0	0.12601042
44	0xbe039082	-0.12848094
45	0xbd6e9582	-0.05824805
46	0x3e01555d	0.1263022
47	0xb9671439	-0.0002203741
48	0x3dfb8e36	0.12282984
49	0xbcfb7f08	-0.030700222
50	0x3df688cc	0.12037811
51	0xbd2b271f	-0.041785356
52	0x3dc06142	0.093935505
53	0x3dfd535e	0.12369417
54	0x3d8c7d0f	0.068597905
55	0x3d1e3c33	0.03863163
56	0x3dcf92f9	0.10135455
57	0x3d93cdd4	0.07216993
58	0xbe0734b6	-0.13203701
59	0x3dda4ac0	0.10658789
60	0xbc9623d0	-0.018327624
61	0x3da69c05	0.08135227
62	0xbdd7455e	-0.105112776
63	0x3df2c59f	0.118540995
64	0xba624a43	-0.00086322817
65	0x3d861164	0.06546286
66	0x3de81e6d	0.11333928
67	0x3c91b456	0.017786186
68	0xbca8cd22	-0.020605627
69	0xbe16c284	-0.1472264
70	0xbe1189c3	-0.14212708
71	0xbe05ee51	-0.13079192
72	0x3d1f60f5	0.038910825
73	0x3d62e0f9	0.055390332
74	0xbe185e8b	-0.14879815
75	0x3e17712d	0.14789267
76	0x3d0a974d	0.033835698
77	0x3c5337b4	0.012891699
78	0x3d1046c6	0.035223745
79	0xbdf8b786	-0.12144379
80	0xbd90e439	-0.0707478
81	0xbc6b67d2	-0.014368014
82	0x3b666320	0.0035154298
83	0x3df22d51	0.1182505
84	0xbd74652f	-0.05966681
85	0x3d66a06a	0.056305327
86	0xbdb840bd	-0.08996723
87	0xbe0c8049	-0.13720812
88	0xbd63b23b	-0.055589896
89	0xbbd5b416	-0.006521712
90	0x3e0da1a6	0.13831195
91	0xbd7ebecb	-0.062193673
92	0xbcfbfa34	-0.030758955
93	0xbdd3b561	-0.1033733
94	0xbdcf3425	-0.10117368
95	0x3bd07b5e	0.0063623628
96	0xbd54d091	-0.051956717
97	0x3dffc2d4	0.124883324
98	0xbd3296ed	-0.043600965
99	0xbc6e0af7	-0.014528981
100	0x3de019cd	0.10942421
101	0xbe04b2fb	-0.129589
102	0x3e084ff5	0.13311751
103	0x3e0fba16	0.1403583
104	0xbdb21fc6	-0.086974666
105	0xbe17131b	-0.14753382
106	0x3a5dbe50	0.000845884
107	0x3bbfb61e	0.0058505675
108	0xbc286f12	-0.0102803875
109	0x3d469aa7	0.04848733
110	0xbdbe107c	-0.09280488
111	0xbd900b07	-0.07033353
112	0xbbcc3792	-0.0062322104
113	0x3e0bdd5e	0.13658664
114	0xbe01738e	-0.12641737
115	0x3cf1ec3a	0.029531587
116	0x3d8e6f3f	0.06954812
117	0xbd879c43	-0.066216014
118	0xbcabaf09	-0.020957487
119	0xbd907dcb	-0.07055243
120	0x3dd6cadc	0.10487911
121	0x3dc040e9	0.09387381
122	0xbe141610	-0.14461541
123	0xbd9b8d42	-0.07595302
124	0x3d3a63b3	0.045505237
125	0xbd2b1f59	-0.041777942
126	0x3b7da934	0.003870559
127	0x3b24e72d	0.0025162206
128	0x3df47b92	0.11937632
129	0x3bb18671	0.005417638
130	0x3ce5d8d3	0.028057491
131	0xbcac109a	-0.02100401
132	0x3d0ad238	0.033891886
133	0x3dfdac56	0.12386386
134	0xbda52ef9	-0.080656
135	0xbdb8a8a9	-0.09016544
136	0xbc2be3a8	-0.010491289
137	0x3d90b345	0.07065443
138	0x3e04ab79	0.12956037
139	0xbd0b9746	-0.034079812
140	0x3e025e2b	0.12731235
141	0xbdf6cbe3	-0.12050607
142	0xbd442fcd	-0.04789715
143	0xbe121c6e	-0.14268658
144	0xbd1c129b	-0.03810368
145	0xbdb9b579	-0.09067816
146	0x3c928306	0.017884742
147	0xbd9324d2	-0.07184757
148	0xbd89cfd8	-0.06729096
149	0x3d9841eb	0.07434448
150	0xbde14b71	-0.110007174
151	0x3cae98fd	0.021313185
152	0xbba6f185	-0.0050947093
153	0xbd9be435	-0.076118864
154	0x3d9364a7	0.07196932
155	0xbd9ceb18	-0.07662028
156	0xbe17f4b6	-0.14839444
157	0xbda31c0e	-0.079643354
158	0x3db96d01	0.09053994
159	0xbd2a7abd	-0.04162096
160	0xbce3d088	-0.027809396
161	0xbdf42644	-0.11921361
162	0x3b9f8149	0.004867707
163	0x3d88dc64	0.06682661
164	0x3d592579	0.053014252
165	0xbd916a97	-0.071004085
166	0xbdaed5a4	-0.085368425
167	0x3da61743	0.081099056
168	0xbd61d5a2	-0.055135377
169	0xbca73973	-0.020413136
170	0x3ce3fab8	0.027829513
171	0x3d81a81a	0.06330891
172	0x3d642e09	0.055707965
173	0xbdbebfaf	-0.093139045
174	0xbb05bdc7	-0.0020407306
175	0x3be458a2	0.0069685737
176	0xbe063aad	-0.1310832
177	0x3ca7b101	0.020470144
178	0xbd4cffca	-0.050048627
179	0x3d926fff	0.07150268
180	0xbd87cb92	-0.06630625
181	0x3da1d155	0.07901255
182	0xbc391da9	-0.011298575
183	0xbe150092	-0.14550999
184	0xbd38ecf8	-0.045147866
185	0x3c27b625	0.010236298
186	0x3c5a91cd	0.013340426
187	0x3e0e633c	0.13905042
188	0x3de83a2f	0.11339223
189	0x3d8ede5e	0.06976007
190	0x3dbff52c	0.09372935
191	0x3d3fdb7f	0.046840187
192	0x3dde44bb	0.10852953
193	0x3c2b9f9b	0.010475065
194	0x3db98dbc	0.09060237
195	0xbdfa46bf	-0.12220525
196	0xbdc2f053	-0.095184945
197	0x3d52ac19	0.051433656
198	0xbd04f9d3	-0.032464813
199	0x3d975dbc	0.07390925
200	0xbdd29a20	-0.10283303
201	0xbd29fc6b	-0.04150049
202	0xbe0bcb23	-0.1365171
203	0x3d99978f	0.07499611
204	0x3bfa95a9	0.0076472354
205	0x3dd03e1b	0.10168096
206	0xbd0aab71	-0.033854906
207	0x3d5d4be2	0.054027446
208	0xbdd38956	-0.10328929
209	0xbc22e009	-0.009941109
210	0xbd384895	-0.044991095
211	0x3e01f74a	0.1269199
212	0x3ddcbb4b	0.10777911
213	0xbdef05da	-0.11671038
214	0x3dc299c5	0.095019855
215	0xbd8312db	-0.06400081
216	0x3de3adb9	0.11117119
217	0x3ca88a7f	0.020573853
218	0x3d9e7c6c	0.07738575
219	0x3d57601c	0.05258189
220	0x3c80e0bd	0.015732164
221	0x3dc86e32	0.09786643
222	0x3e12edae	0.1434848
223	0x3ce6dbcd	0.028180981
224	0x3d41b10d	0.04728799
225	0x3e094f57	0.13409172
226	0xbe11103c	-0.14166349
227	0xbe0dfb21	-0.1386533
228	0xbe011272	-0.12604693
229	0x3d1a38ab	0.0376517
230	0x3e13d6a2	0.14437345
231	0xbd82bdb1	-0.06383837
232	0x3c4e7f09	0.01260353
233	0x3dbb3088	0.09140116
234	0xbd913165	-0.070894994
235	0xbd2121d9	-0.03933892
236	0xbdc50256	-0.09619586
237	0x3d69fd48	0.057126313
238	0x3d7d894e	0.061898522
239	0x3db9a65e	0.09064935
240	0x3e07b98b	0.13254373
241	0xbbe6f859	-0.0070486483
242	0x3d83229c	0.064030856
243	0xbc2e9471	-0.010655508
244	0xbc787b11	-0.01516606
245	0xbd8b5688	-0.06803614
246	0x3dca3f39	0.0987534
247	0xbb6b5d17	-0.003591364
248	0x3d58d735	0.052939612
249	0xbdb0c98b	-0.08632191
250	0xbd6ce29d	-0.057833303
251	0x3dc2922f	0.095005386
252	0x3d15b956	0.036553703
253	0x3c6f34f5	0.014600028
254	0xbdc03be6	-0.09386425
255	0xbdf00531	-0.1171974

architecture.layers.0.bias f4 [128]
0	0xbba9d858	-0.005183261
1	0x3d683321	0.056689385
2	0xbe092691	-0.13393618
3	0xbde76d08	-0.11300093
4	0x3da0242c	0.07819399
5	0xbe0cfd1d	-0.1376843
6	0x3ce6172d	0.028087223
7	0x3df05af5	0.11736099
8	0xbe0d7828	-0.13815367
9	0xbd87b06f	-0.06625449
10	0x3dea6b42	0.11446239
11	0x3d8c770c	0.06858644
12	0x3cfc5113	0.030800378
13	0x3d2b0b77	0.04175898
14	0x3dfa1026	0.12210111
15	0x3bd7099c	0.006562425
16	0x3d956b32	0.072958365
17	0x3dd5a2aa	0.10431416
18	0xbd3c2f14	-0.045943335
19	0xbdbe665c	-0.09296867
20	0xbd830939	-0.063982435
21	0xbdf94444	-0.12171224
22	0x3c098ab1	0.008394883
23	0xbd88cf2c	-0.0668014
24	0x3dcbf304	0.09958461
25	0xbd4a4b48	-0.0493882
26	0x3d91c7d6	0.07118194
27	0x3db86245	0.090031184
28	0xbdc7fa1b	-0.09764501
29	0x3e065b26	0.13120708
30	0xbdd821c3	-0.105533145
31	0xbd8548a3	-0.06507995
32	0x3d642c31	0.055706207
33	0x3d83f035	0.064423
34	0xbe046f61	-0.12933113
35	0xbce6faeb	-0.028195819
36	0xbd7b92ea	-0.061419405
37	0xbdc4c40e	-0.09607707
38	0x3dee0f13	0.11623969
39	0x3d82af31	0.06381071
40	0x3cbe1373	0.023202633
41	0x3dbba8d5	0.091630615
42	0xbd1e6fbd	-0.03868078
43	0xbd960617	-0.0732538
44	0xbe03bed3	-0.12865762
45	0xbe14c4e7	-0.14528237
46	0xbd60a962	-0.054849036
47	0x3d8e4985	0.069476165
48	0xbd818559	-0.06324262
49	0x3d8f5377	0.069983415
50	0x3d5ceaba	0.05393479
51	0x3dadad40	0.084803104
52	0xbcb3f16c	-0.021965705
53	0x3de758a8	0.11296207
54	0x3db80022	0.089844
55	0x3a4c1a0d	0.0007785864
56	0x3d63be53	0.05560143
57	0xbdd5bee3	-0.104367994
58	0xbdaa1ce6	-0.08306293
59	0xbdce3ecb	-0.100705706
60	0x3e0d4f85	0.13799866
61	0x3dfb959e	0.122843966
62	0xbd570a78	-0.05250022
63	0x3e02b8e1	0.12765838
64	0x3c09173d	0.008367357
65	0x3e0d9217	0.1382526
66	0xbe0c0df3	-0.13677196
67	0xbd4b446a	-0.04962579
68	0x3d860ea9	0.06545765
69	0x3da810ba	0.08206315
70	0x3c8749a3	0.016514605
71	0x3d536988	0.051614314
72	0xbd4f96cd	-0.050680924
73	0xbc7f81c3	-0.015594902
74	0xbda8d1db	-0.08243152
75	0xbd4493e7	-0.047992613
76	0xbddff4c4	-0.10935357
77	0x3d08e0fe	0.033417694
78	0x3d9531e5	0.07284907
79	0x3df8ca0c	0.121479124
80	0xbdd6ba12	-0.10484709
81	0xbcc90b2b	-0.024541458
82	0x3db7720d	0.089573
83	0x3d1faa86	0.038980983
84	0xbdd40884	-0.10353187
85	0xbd95c632	-0.073131934
86	0x3cb88f98	0.022529408
87	0x3cd2d0eb	0.025734385
88	0x3d641c6d	0.05569117
89	0xbd4cdcc2	-0.05001522
90	0xbd013361	-0.03154314
91	0x3e0094b5	0.12556727
92	0x3dc86e73	0.097866915
93	0x3d067caa	0.032833733
94	0x3dea9df4	0.114559084
95	0x3bc98918	0.006150376
96	0xb9a12a23	-0.00030739707
97	0x3dafff7a	0.0859365
98	0xbcdeebcf	-0.027212052
99	0x3d0aaf35	0.033858497
100	0x3d92bfd8	0.071654975
101	0xbdd1d4e5	-0.102456845
102	0xbd86ae61	-0.06576229
103	0x3d9580cb	0.07299956
104	0x3de5fa33	0.11229362
105	0xbcf2b258	-0.029626057
106	0xbdb202a3	-0.08691909
107	0xbdec3b45	-0.11534742
108	0x3dda5465	0.10660628
109	0xbd3a0a3d	-0.04541992
110	0xbddf3d8a	-0.109004095
111	0xbd5d2cc8	-0.053997785
112	0xbe0e3fae	-0.1389148
113	0x3cc62de3	0.024191802
114	0xbdcfdc5b	-0.10149451
115	0x3d5aa994	0.05338438
116	0x3dd07fb8	0.101806104
117	0x3db5e9b9	0.0888247
118	0xbe17dba9	-0.14829887
119	0x3d8c71b8	0.06857628
120	0x3da689d5	0.08131758
121	0x3d997951	0.074938424
122	0xbd9763f6	-0.07392113
123	0x3dcc8e3f	0.09988069
124	0xbc53cb35	-0.012926866
125	0x3cf4eea1	0.029898943
126	0x3d059e15	0.032621462
127	0xbe03c681	-0.12868692

architecture.layers.1.weight f4 [64, 128]
0	0x3cfdaa25	0.03096492
1	0xbda00218	-0.07812899
2	0x3c5a47b0	0.013322756
3	0xbd6f8bae	-0.05848282
4	0xbda3335d	-0.07968781
5	0x3d873e4d	0.0660368
6	0x3da4c5e1	0.08045555
7	0x3d0bd427	0.03413787
8	0xbd76e197	-0.060273733
9	0x3d9ab682	0.07554342
10	0xbc8254b9	-0.01590954
11	0x3c9b457a	0.018954027
12	0xbd927669	-0.07151491
13	0xbd9fc16e	-0.07800566
14	0xbd424817	-0.04743203
15	0xbc3b5160	-0.0114329755
16	0xbd1e2454	-0.038608864
17	0xbc9e5f01	-0.01933241
18	0x3caae05d	0.020858938
19	0xbd6ff972	-0.0585875
20	0x3da25bd3	0.0792767
21	0xbd64a70a	-0.055823363
22	0xbc23f691	-0.0100075165
23	0xbdb3570b	-0.087568365
24	0xbc732ab8	-0.014841728
25	0xbd47094f	-0.04859286
26	0xbbf6d99a	-0.0075332643
27	0xbc62037f	-0.013794779
28	0x3cfb15b5	0.03065
29	0xbdb1644b	-0.086617075
30	0xbcdf5f76	-0.027267199
31	0xbd7edeff	-0.062224384
32	0xbda7e4d1	-0.0819794
33	0xbcadce46	-0.021216523
34	0x3d9a2a9e	0.0752766
35	0xbdae2270	-0.08502662
36	0x3d9d4faa	0.0768121
37	0x3d23b5aa	0.03996817
38	0xb962b47f	-0.0002162028
39	0xbb582ef3	-0.0032986968
40	0x3b1e0ef3	0.0024117797
41	0xbda84aaf	-0.0821737
42	0x3cca0ed4	0.024665274
43	0x3c075c08	0.008261688
44	0xbd426909	-0.04746345
45	0xbd9f4c3c	-0.077782124
46	0xbd224ae6	-0.03962221
47	0xbdab5dfe	-0.08367537
48	0xbdaaf50c	-0.0834752
49	0x3d49b9c4	0.049249426
50	0x3d987b4b	0.07445391
51	0xbdabf6be	-0.08396672
52	0x3ca726f7	0.020404322
53	0xbd48ceb5	-0.049025256
54	0x3d06f2b5	0.032946307
55	0x3d90abb8	0.07064003
56	0x3c8866b3	0.016650533
57	0xbd63efca	-0.055648603
58	0x3d9c73b1	0.07639254
59	0xbd33d87f	-0.04390764
60	0x3d55d051	0.05220062
61	0x3ad18bf3	0.0015987143
62	0xbd74dfa8	-0.059783608
63	0xbc37cb81	-0.011217953
64	0xbc21cc5f	-0.009875386
65	0x3d90e301	0.070745476
66	0x3d9382a8	0.07202655
67	0x3da946a4	0.08265427
68	0xbd85a35a	-0.065252975
69	0x3da6d0b8	0.08145279
70	0x3d7e474f	0.062079724
71	0x3d21c0a0	0.039490342
72	0x3d99b5b4	0.0750536
73	0x3d3a4085	0.045471687
74	0x3c015c1c	0.007895496
75	0x3d3ef453	0.046619724
76	0xbda7ce54	-0.08193651
77	0x3b2e0250	0.0026551671
78	0xbd954dc2	-0.07290222
79	0xbd542107	-0.05178931
80	0x3b73d708	0.0037207026
81	0xbd159985	-0.03652336
82	0xbb86e1e1	-0.0041162823
83	0x3d36ad1d	0.044598687
84	0x3d6a23f0	0.05716318
85	0x3cd71e12	0.026259456
86	0xbd30f17b	-0.043199044
87	0x3c5a3000	0.013317108
88	0x3d2959b3	0.04134531
89	0x3d5f5f7b	0.054534417
90	0x3d0190be	0.031632178
91	0xbda8d851	-0.08244384
92	0xbd7bd468	-0.061481863
93	0x3cb91e40	0.022597432
94	0xbd0400b9	-0.03222725
95	0x3bc4a869	0.0060015214
96	0xbccc3621	-0.024928154
97	0x3d64395f	0.055718776
98	0x3bfc3e7e	0.0076978793
99	0xbcd5de26	-0.026106905
100	0xbd83aaec	-0.06429085
101	0x3c8353f2	0.01603124
102	0x3d7670ac	0.060166046
103	0xbda9ba67	-0.082875066
104	0x3daac2e6	0.08337955
105	0x3d9c9380	0.07645321
106	0x3cacd346	0.021096837
107	0xbc87d624	-0.016581602
108	0x3d2014ed	0.039082456
109	0xbcec38db	-0.028835705
110	0xbd6aa7a0	-0.057288766
111	0xbd1387fd	-0.03601836
112	0x3d91d53b	0.071207486
113	0xbd8e040a	-0.06934364
114	0x3da4666a	0.080273464
115	0x3d7f8daf	0.06239098
116	0xbd6c60e8	-0.057709605
117	0xbcc457cd	-0.023967648
118	0x3d24efff	0.04026794
119	0xbd4e2695	-0.050329763
120	0xbda56940	-0.080767155
121	0x3d13331d	0.035937417
122	0x3b2d271c	0.0026421016
123	0xbd81dcd4	-0.06340948
124	0x3c63084a	0.013856957
125	0x3bb93574	0.005652124
126	0x3d232c58	0.03983721
127	0x3c95d3f2	0.01828954
128	0xbcbc4334	-0.022981264
129	0x3ce52aa3	0.027974432
130	0xbd133511	-0.03593928
131	0x3c64e9ea	0.013971785
132	0xbd8d3fbf	-0.06896924
133	0xbd5b9a94	-0.053614214
134	0xbd01aec3	-0.031660806
135	0xbd72dcc3	-0.059292566
136	0xbd8b44fa	-0.068002656
137	0x3bb8e494	0.005642483
138	0x3d0a6cfa	0.033795334
139	0x3bdca191	0.0067331274
140	0x3d6fc651	0.05853874
141	0x3d519f02	0.051177032
142	0x3bf03d0e	0.007331497
143	0xbd808227	-0.062748246
144	0xbd174330	-0.03692931
145	0x3c7d6dcc	0.015468072
146	0x3d92306a	0.071381405
147	0xbd005c75	-0.031338174
148	0x362a69a9	2.5393476e-06
149	0xbd59c15c	-0.053162917
150	0x3d2c93a5	0.042132992
151	0xbc9b5ef4	-0.018966176
152	0xbd8a04c1	-0.06739188
153	0xbcd16941	-0.025562884
154	0x3d2169cb	0.039407533
155	0x3c423da6	0.011855518
156	0x3c5256cd	0.012838078
157	0x3d2708a6	0.040779732
158	0x3da17ed8	0.07885522
159	0x3d995778	0.074873865
160	0x3aa87945	0.0012853524
161	0xbd08bf99	-0.033385847
162	0xbc57a8a5	-0.013162767
163	0x3d4de10b	0.050263446
164	0x3db32c23	0.08748653
165	0xbd90bcbd	-0.07067249
166	0x3d4bc7f6	0.049751244
167	0x3d0be994	0.034158304
168	0x3dac4c2a	0.08412965
169	0xbd7e26d9	-0.062048767
170	0x3c9c89cc	0.019108675
171	0xbcac67fe	-0.021045681
172	0x3c7b275d	0.015329209
173	0xbdb4044b	-0.08789881
174	0x3d307168	0.043076903
175	0x3d9dd132	0.077059165
176	0x3d07aead	0.03312557
177	0x3d962ca1	0.07332731
178	0xbd43b837	-0.047783103
179	0x3cbbbb2d	0.0229164
180	0xbd97c097	-0.074097805
181	0xbd05033c	-0.032473788
182	0x3d0b1e95	0.033964712
183	0x3d8aa65d	0.067700125
184	0xbc861ad4	-0.016370215
185	0xbd95e342	-0.073187366
186	0xbd3befcf	-0.045882996
187	0x3caf44c6	0.021395098
188	0xbd0819b1	-0.033227626
189	0xbc9e3330	-0.019311517
190	0x3d86d825	0.06584195
191	0x3b8cefc5	0.0043010437
192	0x3da5d321	0.0809691
193	0xbd39b91c	-0.04534255
194	0xbcdd320a	-0.0270014
195	0x3d7d5468	0.061848074
196	0x3cf607c5	0.030033002
197	0x3d451998	0.04812011
198	0x3c35b187	0.011089689
199	0x3db0cb76	0.08632557
200	0xbdb14613	-0.08655944
201	0x3d84a565	0.06476859
202	0x3c56855c	0.013093319
203	0xbd8492a2	-0.064732805
204	0xbdabc3db	-0.08386966
205	0xbd536b8b	-0.051616233
206	0xbccf37d0	-0.025295168
207	0xbbb2f397	-0.005461167
208	0xbaef424c	-0.0018254011
209	0x3c81b57e	0.015833613
210	0xbda299c0	-0.07939482
211	0xbc98aac3	-0.018636113
212	0xbc8354a1	-0.016031565
213	0x3d89d579	0.0673017
214	0xbd4d128c	-0.050066516
215	0x3d4e20f5	0.0503244
216	0x3c8461f8	0.016159996
217	0xbc3d22bd	-0.011543927
218	0xbd449a42	-0.047998674
219	0x3aaae9a5	0.0013039602
220	0xbd9a94af	-0.075478904
221	0xbc87dea0	-0.016585648
222	0x3d260ed7	0.040541496
223	0x3d5f8f5b	0.054580074
224	0xbca2f61b	-0.019892743
225	0x3c778590	0.015107527
226	0x3b9471dd	0.004530175
227	0xbd3be8d9	-0.045876358
228	0xbd1dd8db	-0.038536888
229	0x3d6dc289	0.05804685
230	0xbd676962	-0.056496985
231	0xbd64dcdb	-0.055874687
232	0x3ca0c95f	0.019627271
233	0x3cde7f8d	0.02716043
234	0x3dae081e	0.08497642
235	0xbd8d4676	-0.06898205
236	0xbd932f35	-0.071867384
237	0xbdb31795	-0.08744732
238	0x3da33bf4	0.079704195
239	0xbd9c8728	-0.076429665
240	0x3d97d494	0.07413593
241	0xbd85edef	-0.06539523
242	0xbd3c8163	-0.04602183
243	0x3d47fc33	0.0488245
244	0x3d2cbd33	0.042172622
245	0x3d2210f8	0.039566964
246	0x3d871cef	0.065973155
247	0xbcbd5ff2	-0.02311704
248	0x3d198ceb	0.037487905
249	0x3cd1e516	0.025621932
250	0x3bea8b9e	0.007157757
251	0x3c0ec637	0.00871425
252	0x3c8bd745	0.017070422
253	0x3d2630fb	0.040574055
254	0x3b9801ad	0.0046388716
255	0xbd573620	-0.052541852

architecture.layers.1.bias f4 [64]
0	0x3d7c5a3f	0.061609503
1	0xbd431f5f	-0.04763734
2	0xbdb45629	-0.08805496
3	0xbd848e0f	-0.06472408
4	0x3d0b1c07	0.033962276
5	0x3d9adbe6	0.075614735
6	0xbd4c7361	-0.04991472
7	0xbd8dbf25	-0.069212236
8	0x3db3d95a	0.08781691
9	0x3d83b633	0.06431236
10	0x3d436327	0.04770198
11	0x3a8151ae	0.0009866261
12	0x3d7cb347	0.06169441
13	0xbd8b2b52	-0.06795372
14	0x3d486b3f	0.048930403
15	0xbae47cef	-0.0017432253
16	0x3db36ccb	0.08760985
17	0xbcfacaa5	-0.030614207
18	0xbd914322	-0.07092883
19	0x3acd40c0	0.0015659556
20	0x3d9cdde1	0.076595075
21	0x3da79cc3	0.08184197
22	0x3d8d746f	0.069069736
23	0xbdb4b370	-0.088232875
24	0x3d72b869	0.0592579
25	0xbcb530e1	-0.022118034
26	0x3d2a78ff	0.041619297
27	0xba3fe200	-0.00073197484
28	0x3d26536b	0.040606897
29	0x3c10dfd7	0.00884243
30	0xbc9b8ca1	-0.018987956
31	0xbd5eaf53	-0.05436642
32	0x3ba013aa	0.0048851566
33	0x3cab67f9	0.020923601
34	0x3d716d63	0.05894221
35	0x3c910617	0.0177031
36	0xbd37f9cc	-0.04491596
37	0x3d99971d	0.07499526
38	0xbc57ac88	-0.013163693
39	0x3c3a9ddb	0.011390175
40	0x3d50df53	0.05099423
41	0x3cf0f69a	0.029414464
42	0xbd28dedd	-0.041228164
43	0xbdb2a2cb	-0.087224565
44	0x3d7bce81	0.061476234
45	0x3c55ba99	0.013044977
46	0xbd071325	-0.032977242
47	0xbd7c3375	-0.06157251
48	0x3c711995	0.014715572
49	0xbd5c28b2	-0.053749748
50	0xbd59cfe9	-0.053176794
51	0x3d662ae6	0.056193255
52	0x3c9fc106	0.01950122
53	0x3d1d2e96	0.038374506
54	0xbd92ffa9	-0.071776696
55	0xbb048838	-0.0020222794
56	0xbd15649f	-0.036472913
57	0xbd5f8f25	-0.054579873
58	0x3d0a50b7	0.033768382
59	0xbd9916a4	-0.074750215
60	0xbc3325cc	-0.010934304
61	0xbd721e08	-0.05911067
62	0xbdafe20d	-0.08588038
63	0x3d831d86	0.064021155

architecture.layers.2.weight f4 [3, 64]
0	0x3de37532	0.111063376
1	0x3cb0d358	0.021585152
2	0xbd69d8e8	-0.057091624
3	0xbddf58a6	-0.1090558
4	0xbda1b76a	-0.078963116
5	0x3da271dc	0.07931873
6	0xbd86a1c2	-0.065738216
7	0x3c82b920	0.015957415
8	0x3d484760	0.048896194
9	0xbc7d2590	-0.01545085
10	0x3d4bda90	0.049768984
11	0xbb727a40	-0.0036999136
12	0xbdd225d2	-0.1026112
13	0xbcf0c3c8	-0.02939023
14	0xbde2d47c	-0.110756844
15	0x3de05828	0.109543145
16	0x3d0246a8	0.031805664
17	0x3c6d0e10	0.014468685
18	0xbc530020	-0.012878448
19	0xbd80ffe8	-0.0629881
20	0xbdc8565e	-0.09782098
21	0xbddd8a96	-0.10817449
22	0x3d805d74	0.06267825
23	0x3ab71900	0.0013969243
24	0x3d1ddbe8	0.038539797
25	0x3c07f410	0.008297935
26	0x3d8fc452	0.07019867
27	0xbdfb6b6c	-0.122763485
28	0x3db8cb4a	0.09023149
29	0xbdac9942	-0.08427669
30	0xbdc9a542	-0.098459736
31	0x3de7264a	0.112866
32	0xbdb6e0b2	-0.08929576
33	0x3d76b490	0.06023079
34	0xbdd8075a	-0.10548277
35	0x3ddbe1c4	0.10736421
36	0xbd867744	-0.06565717
37	0x3c24cfb0	0.010059282
38	0xbd7ff1b0	-0.06248635
39	0xbded0a68	-0.115742505
40	0xbdfe658a	-0.12421711
41	0x3da81038	0.082062185
42	0xbddb4ed0	-0.10708392
43	0x3d690950	0.056893647
44	0x3d8485d0	0.06470835
45	0xbb0f24c0	-0.0021841973
46	0xbd7ce370	-0.06174034
47	0xbdaac0b0	-0.083375335
48	0x3d99248c	0.07477674
49	0x3dc4e662	0.096142545
50	0x3bcc79c0	0.0062400997
51	0x3d582aa0	0.052775025
52	0xbdc7ccfe	-0.09755896
53	0xbdf0dce8	-0.117608845
54	0xbdb80b64	-0.089865476
55	0xbd6a0934	-0.057137683
56	0xbc6033d0	-0.013684228
57	0xbd902674	-0.07038584
58	0x3db93ed6	0.09045188
59	0x3d793618	0.060842603
60	0xbdfe94f8	-0.12430757
61	0xbd56b5f4	-0.052419618
62	0xbdd4d1ee	-0.103916034
63	0x3d89dcb0	0.06731546
64	0xbd8a8086	-0.06762795
65	0x3dea12d6	0.11429374
66	0x3dce78a2	0.10081603
67	0x3d915a1c	0.07097265
68	0xbdc55c62	-0.09636761
69	0x3db088aa	0.086198166
70	0xbdc7104c	-0.09719905
71	0x3d147f28	0.03625408
72	0x3df611bc	0.12015101
73	0x3d6efd5c	0.05834709
74	0x3c89f648	0.016841069
75	0xbd3550f0	-0.04426664
76	0x3dd25e5a	0.102719024
77	0xbdc13538	-0.09433979
78	0x3dc4b59c	0.09604952
79	0x3dfa8076	0.12231533
80	0xbbe14fc0	-0.006875962
81	0xbdfd3ef4	-0.12365523
82	0x3dea1d74	0.11431399
83	0x3d63e06c	0.055633947
84	0x3dc11062	0.09426953
85	0x3d0a770c	0.03380494
86	0x3c64c850	0.013963774
87	0xbca5b680	-0.020228624
88	0xbd9a1938	-0.07524341
89	0xbdc0d434	-0.094154745
90	0x3c379600	0.011205196
91	0xbde700ce	-0.1127945
92	0xbd72e910	-0.059304297
93	0xbd808eb2	-0.06277217
94	0x3d3a8454	0.045536354
95	0x3dd8d120	0.105867624
96	0xbdd7153c	-0.10502097
97	0x3d81d248	0.06338936
98	0xbde7a30e	-0.11310397
99	0x3d430fc8	0.047622472
100	0xbbfee480	-0.007778704
101	0xbba54600	-0.005043745
102	0xbdb1350a	-0.086526945
103	0xbaa0df00	-0.001227349
104	0x3daa2f7a	0.08309837
105	0xbcf57830	-0.029964536
106	0x3dfeb198	0.12436217
107	0x3d559160	0.052140594
108	0xbdc9a5d8	-0.09846085
109	0x3d1618bc	0.036644682
110	0xbcebb1d8	-0.028771326
111	0xbdf5b6a8	-0.119977295
112	0x3bd92900	0.006627202
113	0x3d27dff8	0.040985078
114	0xbd9dd978	-0.077074945
115	0xbde44cd2	-0.11147465
116	0x3b845780	0.004038751
117	0xbdfa0b9a	-0.12209244
118	0x3d45a908	0.048256904
119	0xbd918ada	-0.07106562
120	0x3cfb4b90	0.03067568
121	0xbdae2464	-0.08503035
122	0xbd620f88	-0.055190593
123	0x3d35b808	0.04436496
124	0x3d95b802	0.07310487
125	0xbd66e0c0	-0.056366682
126	0x3d81aa1c	0.06331274
127	0x3da8936c	0.082312435
128	0x3db74bc8	0.08950001
129	0x3dea0638	0.114269674
130	0x3d9c59d8	0.07634324
131	0xbdaa958c	-0.08329305
132	0x3d877404	0.06613925
133	0xbdfbf608	-0.12302786
134	0xbdb3051a	-0.087412074
135	0x3d67d6e0	0.056601405
136	0xbdc1cffe	-0.094634995
137	0x3becc680	0.0072258115
138	0xbd9de816	-0.077102825
139	0xbdf53e44	-0.11974767
140	0x3d7f1484	0.062275425
141	0x3cfcfd80	0.030882597
142	0xbd789ef8	-0.06069848
143	0xbda14f50	-0.07876456
144	0xbc521990	-0.012823477
145	0x3d891724	0.06693867
146	0xbdc03076	-0.09384243
147	0xbb836080	-0.0040093064
148	0x3cb39198	0.02192001
149	0x3dab366e	0.08359991
150	0xbd068cc8	-0.032849103
151	0x3d469980	0.048486233
152	0x3d9efc1c	0.0776293
153	0x3dbe5a08	0.09294516
154	0xbd2baebc	-0.041914687
155	0xbd85d63c	-0.065350026
156	0x3da9d34e	0.08292256
157	0x3db1c786	0.08680634
158	0x3d1c8e10	0.03822142
159	0xbd809474	-0.06278315
160	0x3b9e0a60	0.004823014
161	0x3d8d3d3e	0.06896447
162	0x3d84b8d8	0.06480569
163	0xbd8f1360	-0.06986117
164	0xbd5e6a74	-0.05430074
165	0xbdb8d70e	-0.090253934
166	0x3d172670	0.03690189
167	0x3df35244	0.11880925
168	0x3c570220	0.013123065
169	0x39694000	0.00022244453
170	0x3df9cf4c	0.12197742
171	0x3d606d14	0.054791525
172	0x3dde5a82	0.10857107
173	0xbddd2626	-0.10798292
174	0xbd9e79b8	-0.0773806
175	0x3cf62a88	0.030049577
176	0x3d065a5c	0.032801017
177	0xbd7bc8e0	-0.061470866
178	0xbddee710	-0.108839154
179	0x3c7c1360	0.015385479
180	0x3b601b40	0.003419593
181	0xbdabc936	-0.08387987
182	0x3dcf0bca	0.101096705
183	0xbd017344	-0.031604066
184	0x3cb7b930	0.022427171
185	0x3c66e840	0.014093459
186	0xbdce312c	-0.100679725
187	0x3cc6e330	0.024278253
188	0xbd287cf4	-0.04113479
189	0xbb83e1e0	-0.004024729
190	0x3da12838	0.07868999
191	0x3d2a52fc	0.041583046

architecture.layers.2.bias f4 [3]
0	0xbcc1f170	-0.023674697
1	0xbb074d80	-0.0020645559
2	0xbccdf6d8	-0.025142118

posterior.mu_weights.0 f4 [128, 45]
0	0x3a91e592	0.0011131039
1	0x3d056557	0.03256735
2	0x3bcda052	0.006275215
3	0xbd400c35	-0.04688664
4	0x3cf5a952	0.029987965
5	0xbcc9630b	-0.02458336
6	0xbd02eb6d	-0.0319628
7	0x399d30c0	0.00029981695
8	0xbd606020	-0.054779172
9	0x3b0903dc	0.0020906841
10	0x3ca7bc54	0.020475544
11	0x3b02ff8b	0.0019988741
12	0x3d2df7ea	0.042472757
13	0x39d31bb9	0.0004026571
14	0x3d55ab5c	0.052165374
15	0x3cf5d042	0.030006532
16	0xba58d170	-0.0008270955
17	0xbdceb418	-0.10092944
18	0xbdb062e5	-0.08612613
19	0x3d83f128	0.06442481
20	0xbdce9e24	-0.10088757
21	0xba6335f6	-0.00086674036
22	0xbc0c8966	-0.00857768
23	0x393d9187	0.00018078658
24	0xbc432ead	-0.011912984
25	0x3dcef4fc	0.10105321
26	0xbb236b4c	-0.002493578
27	0x3dad3b31	0.084585555
28	0x3aee735d	0.001819234
29	0xbd89addc	-0.06722614
30	0x3c042a4e	0.008066727
31	0x3c317f74	0.01083361
32	0xbc2938da	-0.010328496
33	0xbd23938d	-0.039935637
34	0xbbdeaa59	-0.0067952094
35	0xbc465202	-0.012104513
36	0x3a4427e9	0.0007482754
37	0xba4eb351	-0.00078849966
38	0x3d888fd1	0.06668056
39	0xbd9deabe	-0.07710789
40	0xbd947698	-0.072491825
41	0xbd749685	-0.05971386
42	0xb86e32f3	-5.6791072e-05
43	0xbd416222	-0.047212727
44	0x394e1660	0.00019654026
45	0xbaf61a23	-0.00187761
46	0x3da9713b	0.0827355
47	0xbd2cc0b2	-0.042175956
48	0xbd88c57f	-0.066782944
49	0x3d8ce466	0.06879501
50	0xbd433180	-0.04765463
51	0xbc5592e5	-0.013035511
52	0xbd442b71	-0.04789299
53	0x3b271495	0.0025494446
54	0xbc6a9fff	-0.014320373
55	0x3ab51ecc	0.0013818382
56	0xbd2eb1d4	-0.04265006
57	0xbdce2274	-0.10065165
58	0xbd9d52d0	-0.07681811
59	0xbd0e53fc	-0.034748062
60	0x3afba7ce	0.001919979
61	0xbd70a004	-0.058746353
62	0xbd380909	-0.04493049
63	0xbcc0e506	-0.023546707
64	0xbda4a59f	-0.08039402
65	0xb7e4af3d	-2.726132e-05
66	0x3c244f26	0.010028636
67	0xbd0e5da8	-0.034757286
68	0x3a526c52	0.0008027005
69	0x3db82457	0.08991306
70	0x3c688057	0.014190755
71	0x396490f0	0.00021797768
72	0x3aab5f5e	0.0013074686
73	0xbd833ec4	-0.06408456
74	0x3d4650e0	0.048416972
75	0xbaa38b27	-0.0012477384
76	0xba25e2fb	-0.0006328073
77	0xbbba7f65	-0.005691456
78	0x3d1ce568	0.038304716
79	0xb8e0a8df	-0.00010712607
80	0xbba474ca	-0.005018805
81	0xbdafa611	-0.085765965
82	0xbb353c7b	-0.0027654457
83	0xbd9641f5	-0.07336799
84	0x3da12e0a	0.078701094
85	0xbaab2e17	-0.001306
86	0xb9dc5055	-0.00042021522
87	0x3d5b7f73	0.053588342
88	0xbd1ab0c7	-0.037766244
89	0x3ae5effd	0.0017542836
90	0x3d4e6c18	0.050396055
91	0x398dec5c	0.00027069717
92	0x3c9f9d63	0.019484228
93	0x3d762276	0.06009146
94	0xb92592f9	-0.00015790378
95	0x3d815e64	0.06316832
96	0x39cad80a	0.00038689404
97	0x3d9eac5c	0.07747719
98	0x3b1e75e1	0.0024179148
99	0xbb376f00	-0.0027989745
100	0xba9b23a2	-0.0011836181
101	0x3a365e69	0.0006956817
102	0xb8b5ff81	-8.678344e-05
103	0x3d877125	0.066133775
104	0x3d88c651	0.06678451
105	0xbc89355d	-0.016749078
106	0xbaf0634d	-0.0018340141
107	0x399cbcab	0.00029895207
108	0x3aa0794e	0.0012243183
109	0x3da21a2c	0.07915148
110	0xbd69acf8	-0.05704972
111	0x3da35a46	0.07976203
112	0x3db54119	0.08850307
113	0x3d3d08a0	0.046150804
114	0x3d99e4ec	0.075143665
115	0xbc864c44	-0.016393788
116	0x3d8a6db5	0.06759206
117	0x3dc0a6e8	0.09406835
118	0xbd849c26	-0.064750955
119	0xbd701aa2	-0.05861915
120	0xbbf1eedd	-0.007383211
121	0xbbe25b49	-0.0069078547
122	0x3db2265c	0.08698723
123	0x3d68e4db	0.05685888
124	0x3d892571	0.066965945
125	0xbc8dc245	-0.017304549
126	0x3aa73fea	0.0012760137
127	0xbcad83e2	-0.02118105
128	0xba9f1c23	-0.0012139123
129	0xbcbe1d79	-0.023207413
130	0x3dab7ece	0.083737954
131	0xbaeb3735	-0.001794553
132	0xbdc65015	-0.09683243
133	0xbdbbc826	-0.09169035
134	0xba299072	-0.00064683624
135	0x3c6a0178	0.014282577
136	0xbd012667	-0.031530764
137	0x3cbddfda	0.02317803
138	0x3dcde1a2	0.10052802
139	0xbd972cc7	-0.073815875
140	0x372935e7	1.0085735e-05
141	0xb9375dcc	-0.00017487182
142	0xbd4dd1c4	-0.050248876
143	0x3b73a335	0.0037176136
144	0xbcdff6c1	-0.027339341
145	0xbdbefb77	-0.09325307
146	0x3dc3d2c8	0.09561688
147	0xbc95fd2f	-0.018309204
148	0x3c09595f	0.008383124
149	0xba3c67a6	-0.00071870757
150	0x3d8e3c38	0.069450796
151	0x39a40a43	0.00031288163
152	0xbd0e701f	-0.034774896
153	0x3c59ff00	0.013305426
154	0xbd6aecb0	-0.05735463
155	0x3991283d	0.00027686535
156	0xbd243c7a	-0.040096737
157	0x3d84b7e5	0.064803876
158	0x3913d896	0.00014099697
159	0x3d8a3af1	0.067495234
160	0x3d917377	0.07102101
161	0x3d330961	0.043710116
162	0x3d8ff47a	0.07029052
163	0xbca7311f	-0.020409165
164	0x3db51cf3	0.08843412
165	0x3c9e4ad9	0.0193228
166	0x3dc8c4e9	0.09803183
167	0xbdc08fbf	-0.094024174
168	0x3daf771a	0.08567639
169	0x3dbcca9f	0.092183344
170	0xbcaf8ded	-0.02142998
171	0x3d7731dc	0.060350284
172	0x397ea8dd	0.00024286234
173	0x397b3fdc	0.00023961015
174	0x3d430a68	0.047617346
175	0x3ad8700e	0.0016512887
176	0xbcc6464c	-0.024203442
177	0x3a1bad57	0.00059386104
178	0x3ca18f9a	0.019721795
179	0xbd932463	-0.071846746
180	0xbcfef5aa	-0.031123001
181	0xbab67c5e	-0.0013922562
182	0x3d4b8069	0.04968301
183	0x3b388a8d	0.0028158755
184	0x3c5b77ab	0.01339523
185	0x3cbde42f	0.023180095
186	0xbca0e409	-0.019639986
187	0xbd6eafa4	-0.058272973
188	0xbda2a273	-0.07941141
189	0x3c72edb8	0.014827184
190	0xbdbc0921	-0.09181429
191	0xbd2004fc	-0.039067253
192	0x3c938801	0.018009188
193	0xbdc68228	-0.09692794
194	0x3d9222ed	0.07135568
195	0xbd3cffc6	-0.046142362
196	0x3c25fa2e	0.010130448
197	0x3a633298	0.0008666902
198	0x3cc782db	0.024354389
199	0x3d443fd6	0.04791244
200	0xbce5a287	-0.0280316
201	0xbcb4aca2	-0.022054974
202	0x3da8f0a5	0.08249024
203	0x3cf00008	0.02929689
204	0x3dbaf3db	0.09128543
205	0xbdaec10b	-0.08532914
206	0xbd0032fd	-0.031298626
207	0x3bc7357e	0.006079375
208	0xbd8b2e1b	-0.06795903
209	0xbb931dcc	-0.004489636
210	0xbd13fc9a	-0.03612957
211	0xbcba4400	-0.022737503
212	0xbdc84fb3	-0.097808264
213	0xbd0ab61d	-0.033865083
214	0x3d57c244	0.0526755
215	0xbd7457c1	-0.059654
216	0xbd5180fb	-0.051148396
217	0xbcfedf37	-0.031112297
218	0xbab2c320	-0.0013638474
219	0xbd9864f0	-0.07441127
220	0x39ca094f	0.00038535378
221	0x392cde5e	0.00016486036
222	0x3da8916e	0.082308635
223	0xba36ff9d	-0.00069808384
224	0x3c291eff	0.010322331
225	0x3a77e154	0.0009455879
226	0xbda169cd	-0.07881508
227	0xbd39ffb7	-0.045409884
228	0xbae81f0c	-0.0017709448
229	0x3d35060d	0.044195224
230	0xbc0fe978	-0.008783691
231	0x3c4aafbc	0.012371
232	0xbdc9f36c	-0.09860882
233	0x3d91df3f	0.07122659
234	0xbac66c48	-0.0015138471
235	0xbd631a65	-0.055445094
236	0xbbcca6c1	-0.0062454646
237	0x3a2def9c	0.0006635131
238	0xbc7a02b6	-0.015259435
239	0xbd2d4a9c	-0.04230748
240	0xbd9067a0	-0.07051015
241	0x3d9da006	0.07696538
242	0x3cab6b97	0.020925326
243	0x3dcbc414	0.09949508
244	0x3b3422d1	0.0027486573
245	0x3d40852a	0.047001995
246	0x3d96a2c8	0.07355267
247	0xbdcc9665	-0.09989623
248	0xbb02a483	-0.0019934482
249	0x3c80f193	0.015740192
250	0x3ab4ac7f	0.0013784318
251	0x3ac0b3f8	0.0014702072
252	0x3bc15717	0.0059002745
253	0x3d844f77	0.06460469
254	0x3d0e858a	0.03479532
255	0xbd925083	-0.07144263

posterior.mu_weights.1 f4 [64, 128]
0	0xbd1d3b05	-0.038386364
1	0x3ab931a6	0.0014129176
2	0xbcad3a9b	-0.02114611
3	0x3a493b9c	0.0007676424
4	0x39096b5b	0.00013105331
5	0xb8042abe	-3.151106e-05
6	0xbcf08b5e	-0.02936333
7	0xbb9bc2b1	-0.0047534336
8	0x3d170e7f	0.03687906
9	0xbb416a5a	-0.0029512853
10	0xb9d1a95f	-0.00039989778
11	0xb97f7701	-0.00024363027
12	0xbc0b9acb	-0.008520792
13	0x3c5f1bad	0.013617438
14	0x3ca55246	0.020180833
15	0x3cbdc340	0.023164392
16	0xb99a8fd5	-0.00029480332
17	0x3d095ddb	0.033536773
18	0xbcbe10ee	-0.023201432
19	0xba632d5f	-0.00086661236
20	0x3b030546	0.0019992157
21	0x3afa796e	0.0019109675
22	0xbc167eb5	-0.009185483
23	0xbcd19df6	-0.025588017
24	0x3d0d057d	0.034429062
25	0x3a5df6aa	0.0008467237
26	0xb8e6af56	-0.000109999135
27	0x3a545e01	0.0008101166
28	0x397280eb	0.00023126944
29	0x3cbb330a	0.022851486
30	0xba55c0c9	-0.00081540324
31	0xb89b046d	-7.3918e-05
32	0x3ceaa124	0.028641291
33	0xbd2a366f	-0.04155582
34	0x3c4f7cc8	0.0126640275
35	0x3b848eae	0.004045329
36	0x3d0b1e3d	0.033964384
37	0xbcc9556d	-0.024576867
38	0x3c78949e	0.015172152
39	0xbc92c54f	-0.01791635
40	0x39464383	0.00018907902
41	0xbcdc288b	-0.026874801
42	0xbb5647ee	-0.0032696682
43	0xb5b36c92	-1.3368137e-06
44	0x398a6a03	0.00026400396
45	0xba78e83b	-0.0009495054
46	0xb9f903b9	-0.00047495755
47	0xba1e2eec	-0.00060342136
48	0xbad6c7d8	-0.0016386462
49	0x3b0344e4	0.0020030076
50	0xbc9b579e	-0.018962678
51	0xbcb61f9a	-0.022231866
52	0x3cfe9c7b	0.031080475
53	0xbd2393a4	-0.039935723
54	0xb7c1b248	-2.3090412e-05
55	0x3d048a5a	0.032358505
56	0xb872dc0f	-5.790224e-05
57	0x398a642b	0.00026396042
58	0x3c2f0393	0.0106820045
59	0xb799fdcc	-1.8357205e-05
60	0x3d2860d8	0.041107982
61	0x38a39390	7.799931e-05
62	0xb84fa41c	-4.9505485e-05
63	0x3ca8f0f5	0.02062271
64	0xba3dcf15	-0.00072406355
65	0x3cb7a941	0.022419574
66	0x39f1a7a3	0.00046092
67	0xbc199110	-0.0093729645
68	0xbc423a5d	-0.011854735
69	0x3cce4cb7	0.025183065
70	0xbc46e665	-0.012139891
71	0x3bb98bb8	0.0056624077
72	0xbad4dc2b	-0.0016239932
73	0xba5ee1e6	-0.00085022894
74	0xbc7c10fa	-0.015384907
75	0xba2b2b5c	-0.00065295934
76	0xbceedaf3	-0.029157137
77	0x379ff441	1.9068017e-05
78	0xbaf974fb	-0.0019032055
79	0xb8b4bf85	-8.618742e-05
80	0xb9ca1f36	-0.00038551696
81	0xbaf33c3a	-0.0018557378
82	0xbaaadfbd	-0.001303665
83	0xba179975	-0.000578306
84	0x3aaf8826	0.0013392016
85	0xb9fbad0d	-0.00048003384
86	0xbc9c392e	-0.019070234
87	0xb9f780b0	-0.0004720739
88	0x3759b389	1.2976009e-05
89	0xbb00a941	-0.0019632133
90	0x3afc38fb	0.0019243056
91	0x3a49a07b	0.0007691455
92	0x3a9b4105	0.0011844939
93	0x3c986f9d	0.018607909
94	0x3cbe4f67	0.023231221
95	0x3d12a945	0.03580596
96	0xba62cd94	-0.00086518493
97	0xbc1ff41a	-0.009762788
98	0x3d038350	0.03210765
99	0xbcdc1fd4	-0.026870646
100	0xba9a4736	-0.001177049
101	0x3d28e6b8	0.041235656
102	0xbd2db708	-0.04241088
103	0xbbe507aa	-0.006989439
104	0xb9508c72	-0.00019888746
105	0xbd24aba2	-0.040202744
106	0x3b2cb699	0.0026353954
107	0x3cfec399	0.031099128
108	0xbc18e2af	-0.009331389
109	0xbc313a39	-0.010817104
110	0xb9957c33	-0.0002851203
111	0xbd079315	-0.033099253
112	0xb694d973	-4.436058e-06
113	0xbc7c745c	-0.015408602
114	0xb99575c2	-0.0002850723
115	0x3cc36ee0	0.02385658
116	0x3a177c4b	0.0005778714
117	0x3d2e025c	0.04248272
118	0x3cf1100e	0.0294266
119	0x3bfae58b	0.007656758
120	0xba921560	-0.0011145286
121	0xb9718d41	-0.00023036172
122	0xbcb959ac	-0.022625767
123	0x3b0276f7	0.0019907334
124	0x39805d1d	0.00024483437
125	0xbb01e2c7	-0.0019819008
126	0x3c98e842	0.018665437
127	0xb9d3d361	-0.00040402546
128	0x3aeeac42	0.0018209296
129	0xbacf3f33	-0.0015811682
130	0x3ad930da	0.0016570345
131	0xb86b624f	-5.6119923e-05
132	0xbced6711	-0.02897981
133	0xbada8cd7	-0.0016674054
134	0xbcdcaa84	-0.026936777
135	0xbb1711ae	-0.002305131
136	0x39306e4d	0.00016825758
137	0x3b12abb9	0.0022380187
138	0xbaa5a908	-0.0012638876
139	0x3c121c55	0.008917888
140	0xb9e0eeb5	-0.0004290246
141	0x3c58442f	0.01319985
142	0x39c6fe21	0.00037954844
143	0x3aed0542	0.0018083232
144	0xb9bfde64	-0.00036596053
145	0xb8db6286	-0.00010461085
146	0x39fbd180	0.0004803054
147	0x3b9e3a99	0.0048287627
148	0x3c2908fb	0.0103170825
149	0xbaff4062	-0.0019474144
150	0x3c41d414	0.0118303485
151	0xbcbf9f0f	-0.023391275
152	0x3aa82848	0.0012829388
153	0x3cf003c2	0.029298667
154	0xba62d087	-0.0008652289
155	0xb90cee55	-0.00013440226
156	0xbc7f8617	-0.015595934
157	0xbd1ca7bc	-0.0382459
158	0xb9876de6	-0.00025831087
159	0xbd1e3bab	-0.038631123
160	0x392a3b0d	0.00016234462
161	0xbc0e81b4	-0.008697916
162	0x3986f369	0.00025739826
163	0x3c819f50	0.015823036
164	0x3a62d2aa	0.0008652607
165	0xb9221ceb	-0.00015460297
166	0x3d1937e9	0.037406836
167	0x392e8d45	0.0001664656
168	0x3a527d10	0.00080295
169	0x3d232e79	0.03983924
170	0x3d04eeaf	0.03245419
171	0xbca61e24	-0.020278044
172	0xbce9466a	-0.028475959
173	0x3b46da50	0.0030342527
174	0x3952e4a7	0.0002011234
175	0x39ae08a9	0.00033194319
176	0x3c9e81a2	0.019348923
177	0xb96b6f2d	-0.00022452763
178	0xbc9541be	-0.018219825
179	0xbb024d2b	-0.0019882421
180	0x3c7eaf3b	0.015544708
181	0xbcd5e562	-0.026110355
182	0x38ce9cd9	9.8520606e-05
183	0x3aa022bb	0.0012217382
184	0x3c48a8e8	0.012247302
185	0x3d00aadc	0.031412944
186	0x3d224254	0.039614037
187	0x3d1b6e3f	0.037946936
188	0xbcb0cc80	-0.021581888
189	0x39f23423	0.00046196682
190	0xb75d1d8a	-1.3179504e-05
191	0x38865055	6.404581e-05
192	0x3cf5bdb5	0.029997686
193	0x3cd2537a	0.02567457
194	0xbd13ad63	-0.036054026
195	0x3c048d38	0.00809031
196	0x3a47cd64	0.0007621853
197	0xbba5d8af	-0.005061231
198	0x3cee60af	0.029098837
199	0xba30e93d	-0.00067486224
200	0xbc9cbd48	-0.019133225
201	0xbabd5729	-0.0014445531
202	0xbc0759ff	-0.008261203
203	0x3d197e65	0.037474055
204	0x3af1e938	0.0018456345
205	0x39b91a2e	0.00035305455
206	0xbafab11d	-0.001912627
207	0xbc9181d9	-0.017762111
208	0x3c45236a	0.012032369
209	0xbcdeb628	-0.027186468
210	0xbd005deb	-0.031339567
211	0xba948fcb	-0.0011334358
212	0x3a98b120	0.0011649467
213	0xba206697	-0.00061188027
214	0x39227d13	0.00015496118
215	0x3b00724c	0.0019599376
216	0x3c3037ba	0.010755474
217	0xbc9e4465	-0.019319722
218	0xbb034873	-0.0020032197
219	0xbc884e34	-0.016638853
220	0x3d1ad852	0.037803955
221	0xbaffee1c	-0.0019525918
222	0xbb0458e7	-0.0020194591
223	0x3a9d9049	0.001202115
224	0xb9570d36	-0.00020508919
225	0xbab70d87	-0.0013965823
226	0xb997de74	-0.00028966705
227	0xbaf1295f	-0.001839917
228	0xb9513df8	-0.00019954878
229	0x3c732bde	0.014842002
230	0x3731e2ba	1.0602811e-05
231	0x3936f5d3	0.00017448449
232	0xbaaafa22	-0.0013044516
233	0x398f0840	0.00027281232
234	0x3af7543d	0.001886971
235	0x3cadc822	0.021213595
236	0x3a52c380	0.0008039996
237	0xb84b0755	-4.84058e-05
238	0x396fb447	0.00022859975
239	0x3cd794db	0.026316097
240	0x3a6fd210	0.0009148428
241	0x3c3fe9ff	0.011713504
242	0xbd1699ba	-0.0367677
243	0xba28dc25	-0.00064414955
244	0xbb01cea7	-0.0019807012
245	0xbcd037cd	-0.025417233
246	0xba9f8cf6	-0.0012172747
247	0xb893e502	-7.052162e-05
248	0xbcaf8d53	-0.021429693
249	0x380c705a	3.3483237e-05
250	0x3a9b0e06	0.0011829741
251	0xba8b7401	-0.001063943
252	0xbca0a7b3	-0.019611215
253	0xb905945a	-0.00012739134
254	0x3b2d0925	0.0026403156
255	0x3a9291d5	0.0011182377

posterior.mu_weights.2 f4 [3, 64]
0	0x3d104fe9	0.03523246
1	0x3d9de244	0.07709172
2	0x3d889e79	0.06670851
3	0xbd8163df	-0.06317877
4	0xbb001c6c	-0.001954819
5	0x3a459b7d	0.0007538123
6	0x3883588b	6.263059e-05
7	0xbc30ebe9	-0.010798433
8	0x3cf802f5	0.030274848
9	0xbc95de13	-0.01829437
10	0x3c096b66	0.008387422
11	0xbbe9d3b0	-0.007135831
12	0x3d6f8a86	0.058481716
13	0xbb2601b2	-0.00253306
14	0xba9c168f	-0.0011908578
15	0xbbd1d86d	-0.006403974
16	0xbc1d4920	-0.009599954
17	0x3bff3798	0.0077886097
18	0x3a3e272f	0.00072537636
19	0xba72ebab	-0.00092666846
20	0xbcd1eaae	-0.0256246
21	0x3d766de3	0.06016339
22	0xbd6b22f4	-0.05740638
23	0xbd25bdaa	-0.04046408
24	0xb9f0756c	-0.00045863853
25	0xbd864e0b	-0.06557854
26	0xbd1f547a	-0.038898923
27	0x3bd9521b	0.006632102
28	0x3d18a309	0.037264857
29	0x3b4a3db9	0.0030859543
30	0xbd2f3cd6	-0.042782627
31	0xbcd9f941	-0.026608111
32	0x3ce32f4b	0.027732512
33	0x39fb606d	0.00047946293
34	0xb8b9cea8	-8.85998e-05
35	0x3c98020d	0.018555665
36	0xbcbd2c9f	-0.023092566
37	0x3c122e56	0.00892218
38	0x3c2ee47a	0.01067459
39	0x3d4b291c	0.04959975
40	0x3c1de45c	0.009636965
41	0x3be61eaa	0.0070226984
42	0xbd01ff31	-0.03173751
43	0x3a7d03e3	0.0009651763
44	0x395b8713	0.00020935787
45	0x3ca28cb6	0.019842487
46	0xbc9f9b51	-0.01948324
47	0x39a322e7	0.00031115787
48	0xbafe28ed	-0.0019390859
49	0x3d70cf94	0.058791712
50	0x3d9a78f3	0.075426005
51	0xbc843dad	-0.01614269
52	0xb9995292	-0.00029243954
53	0x3bc43d84	0.0059887785
54	0xba5da9c9	-0.0008455781
55	0xbd55d6dd	-0.052206863
56	0xbd82b582	-0.06382276
57	0x3a587701	0.0008257479
58	0x3be1e5d0	0.006893851
59	0xbbce6542	-0.006298692
60	0xbb27452a	-0.0025523403
61	0xbae2b2b9	-0.0017295695
62	0x3bb826d2	0.005619862
63	0x3d0baca4	0.03410019
64	0x3d212410	0.039341033
65	0x39fa4c4b	0.00047740559
66	0xb87a6160	-5.9695332e-05
67	0xbd10b30b	-0.035327
68	0xbd1c7362	-0.038195975
69	0x3b01f638	0.0019830596
70	0xbc81a88a	-0.015827436
71	0xbba9df92	-0.0051841224
72	0xb9eadda9	-0.00044797108
73	0x3a8e6baf	0.0010865832
74	0x3d4740e2	0.04864586
75	0xbc3dfee4	-0.011596415
76	0x3a6725e0	0.00088175945
77	0x3d5fdfe3	0.054656874
78	0xbcaeef52	-0.021354351
79	0xbbf5cfe6	-0.00750159
80	0xbd6bf076	-0.05760237
81	0xbd82c44f	-0.06385099
82	0x3adcad9a	0.0016836405
83	0xb9ad12a4	-0.0003301102
84	0x3c9d6f6e	0.019218173
85	0xb8a1fafc	-7.723828e-05
86	0x3d4e28f1	0.050332014
87	0xba82340d	-0.0009933725
88	0x3d2cafa9	0.04215971
89	0xba021e00	-0.0004963577
90	0xbc599103	-0.013279202
91	0x3d5c73a3	0.053821217
92	0xbd78ccb0	-0.06074208
93	0x3c4c8e6c	0.012485128
94	0xbd8e2c64	-0.069420606
95	0x3d17d693	0.03706987
96	0x3d06bad4	0.032893017
97	0x3d80a41c	0.062813014
98	0x3a40569c	0.00073371246
99	0xbca34dee	-0.01993462
100	0xb90f2941	-0.00013652911
101	0xbd8d7301	-0.06906701
102	0x3d6ff9e2	0.058587916
103	0xba21ddab	-0.00061746937
104	0x3d4b5b43	0.04964758
105	0xbc9297ad	-0.01789459
106	0x3827c2a3	3.9997172e-05
107	0x39d44090	0.00040483894
108	0xb893c40d	-7.0460235e-05
109	0xbd494715	-0.049140055
110	0x3a4574f7	0.0007532383
111	0x3a133a21	0.0005616267
112	0x3d95cae4	0.07314089
113	0xbd1c69ac	-0.038186714
114	0x3a4ebfc0	0.00078868493
115	0x3d8d95e2	0.069133535
116	0xbb85c57a	-0.004082379
117	0xb9f8c498	-0.0004744872
118	0xb9495776	-0.00019201435
119	0xbd29fb25	-0.041499276
120	0x3d74685d	0.05966984
121	0x395f0784	0.00021269737
122	0xbd71fea4	-0.059080735
123	0xbc7e6da6	-0.015529072
124	0xbd82cee8	-0.063871205
125	0xba5bb28e	-0.0008380794
126	0x3d0a3c32	0.033748813
127	0xbbd67209	-0.006544356
128	0x3d80ff0c	0.06298646
129	0xbca1e69a	-0.01976328
130	0xbab26758	-0.0013611121
131	0x3c26a8b8	0.010172062
132	0x3d9928eb	0.074785076
133	0xbc9aea61	-0.018910589
134	0x3a6a8cfc	0.00089474
135	0xb9dafb5d	-0.0004176748
136	0x3cfca546	0.030840527
137	0xbd12f9c2	-0.03588272
138	0x3d9ebee7	0.077512555
139	0xbd20fe62	-0.0393051
140	0xbd833f53	-0.064085625
141	0x3a9effca	0.0012130674
142	0xbd77eddb	-0.06052957
143	0xbc0059c2	-0.0078339
144	0xbb004ac2	-0.001957581
145	0xbc4e7931	-0.0126021365
146	0xbc5a45d1	-0.01332231
147	0x3ab22ca9	0.0013593632
148	0xbcf770ca	-0.03020515
149	0x3c489ad9	0.01224395
150	0xba5d2411	-0.0008435855
151	0x3d1e76c5	0.038687486
152	0x3d71fad0	0.059077084
153	0x3c67f5f6	0.014157763
154	0x3c0d9362	0.008641096
155	0xb909f90e	-0.00013158118
156	0xbd7b7ab8	-0.06139633
157	0xbc8a2d8c	-0.016867422
158	0x3d1fdb9c	0.039027795
159	0x3af25215	0.0018487597
160	0x3d48e33c	0.049044833
161	0xbad3cd74	-0.0016159252
162	0x3c2c0b00	0.0105006695
163	0x3a3ed1d3	0.0007279191
164	0xb9d58c2b	-0.0004073096
165	0xb9cf10c6	-0.00039494614
166	0x3b03474a	0.0020031505
167	0xb91b53fe	-0.00014813241
168	0xbac4475c	-0.001497488
169	0x3d370d6f	0.044690546
170	0x3d8df92a	0.0693229
171	0xbcdcd93a	-0.02695905
172	0xbc6988b0	-0.01425378
173	0x3ce68eee	0.028144326
174	0xbd7c4f21	-0.0615989
175	0xbd0d3e3c	-0.03448318
176	0x3b1540e4	0.0022774274
177	0xb88bfbbe	-6.674927e-05
178	0xbd091c3f	-0.033474203
179	0xbb21b980	-0.0024677217
180	0xba433ca8	-0.0007447698
181	0xb91de37b	-0.0001505743
182	0xbaadbaa2	-0.0013254473
183	0xbb6f274d	-0.003649193
184	0xbd83c78a	-0.064345434
185	0x3afc4f19	0.0019249647
186	0x3d6515e2	0.055929072
187	0xbbd2dccb	-0.006435012
188	0xbc6220fb	-0.0138018085
189	0xbc343a38	-0.011000209
190	0xba625e6f	-0.00086352875
191	0xbd125978	-0.035729855

posterior.mu_biases.0 f4 [128]
0	0x00000000	0.0
1	0x00000000	0.0
2	0x00000000	0.0
3	0x00000000	0.0
4	0x00000000	0.0
5	0x00000000	0.0
6	0x00000000	0.0
7	0x00000000	0.0
8	0x00000000	0.0
9	0x00000000	0.0
10	0x00000000	0.0
11	0x00000000	0.0
12	0x00000000	0.0
13	0x00000000	0.0
14	0x00000000	0.0
15	0x00000000	0.0
16	0x00000000	0.0
17	0x00000000	0.0
18	0x00000000	0.0
19	0x00000000	0.0
20	0x00000000	0.0
21	0x00000000	0.0
22	0x00000000	0.0
23	0x00000000	0.0
24	0x00000000	0.0
25	0x00000000	0.0
26	0x00000000	0.0
27	0x00000000	0.0
28	0x00000000	0.0
29	0x00000000	0.0
30	0x00000000	0.0
31	0x00000000	0.0
32	0x00000000	0.0
33	0x00000000	0.0
34	0x00000000	0.0
35	0x00000000	0.0
36	0x00000000	0.0
37	0x00000000	0.0
38	0x00000000	0.0
39	0x00000000	0.0
40	0x00000000	0.0
41	0x00000000	0.0
42	0x00000000	0.0
43	0x00000000	0.0
44	0x00000000	0.0
45	0x00000000	0.0
46	0x00000000	0.0
47	0x00000000	0.0
48	0x00000000	0.0
49	0x00000000	0.0
50	0x00000000	0.0
51	0x00000000	0.0
52	0x00000000	0.0
53	0x00000000	0.0
54	0x00000000	0.0
55	0x00000000	0.0
56	0x00000000	0.0
57	0x00000000	0.0
58	0x00000000	0.0
59	0x00000000	0.0
60	0x00000000	0.0
61	0x00000000	0.0
62	0x00000000	0.0
63	0x00000000	0.0
64	0x00000000	0.0
65	0x00000000	0.0
66	0x00000000	0.0
67	0x00000000	0.0
68	0x00000000	0.0
69	0x00000000	0.0
70	0x00000000	0.0
71	0x00000000	0.0
72	0x00000000	0.0
73	0x00000000	0.0
74	0x00000000	0.0
75	0x00000000	0.0
76	0x00000000	0.0
77	0x00000000	0.0
78	0x00000000	0.0
79	0x00000000	0.0
80	0x00000000	0.0
81	0x00000000	0.0
82	0x00000000	0.0
83	0x00000000	0.0
84	0x00000000	0.0
85	0x00000000	0.0
86	0x00000000	0.0
87	0x00000000	0.0
88	0x00000000	0.0
89	0x00000000	0.0
90	0x00000000	0.0
91	0x00000000	0.0
92	0x00000000	0.0
93	0x00000000	0.0
94	0x00000000	0.0
95	0x00000000	0.0
96	0x00000000	0.0
97	0x00000000	0.0
98	0x00000000	0.0
99	0x00000000	0.0
100	0x00000000	0.0
101	0x00000000	0.0
102	0x00000000	0.0
103	0x00000000	0.0
104	0x00000000	0.0
105	0x00000000	0.0
106	0x00000000	0.0
107	0x00000000	0.0
108	0x00000000	0.0
109	0x00000000	0.0
110	0x00000000	0.0
111	0x00000000	0.0
112	0x00000000	0.0
113	0x00000000	0.0
114	0x00000000	0.0
115	0x00000000	0.0
116	0x00000000	0.0
117	0x00000000	0.0
118	0x00000000	0.0
119	0x00000000	0.0
120	0x00000000	0.0
121	0x00000000	0.0
122	0x00000000	0.0
123	0x00000000	0.0
124	0x00000000	0.0
125	0x00000000	0.0
126	0x00000000	0.0
127	0x00000000	0.0

posterior.mu_biases.1 f4 [64]
0	0x00000000	0.0
1	0x00000000	0.0
2	0x00000000	0.0
3	0x00000000	0.0
4	0x00000000	0.0
5	0x00000000	0.0
6	0x00000000	0.0
7	0x00000000	0.0
8	0x00000000	0.0
9	0x00000000	0.0
10	0x00000000	0.0
11	0x00000000	0.0
12	0x00000000	0.0
13	0x00000000	0.0
14	0x00000000	0.0
15	0x00000000	0.0
16	0x00000000	0.0
17	0x00000000	0.0
18	0x00000000	0.0
19	0x00000000	0.0
20	0x00000000	0.0
21	0x00000000	0.0
22	0x00000000	0.0
23	0x00000000	0.0
24	0x00000000	0.0
25	0x00000000	0.0
26	0x00000000	0.0
27	0x00000000	0.0
28	0x00000000	0.0
29	0x00000000	0.0
30	0x00000000	0.0
31	0x00000000	0.0
32	0x00000000	0.0
33	0x00000000	0.0
34	0x00000000	0.0
35	0x00000000	0.0
36	0x00000000	0.0
37	0x00000000	0.0
38	0x00000000	0.0
39	0x00000000	0.0
40	0x00000000	0.0
41	0x00000000	0.0
42	0x00000000	0.0
43	0x00000000	0.0
44	0x00000000	0.0
45	0x00000000	0.0
46	0x00000000	0.0
47	0x00000000	0.0
48	0x00000000	0.0
49	0x00000000	0.0
50	0x00000000	0.0
51	0x00000000	0.0
52	0x00000000	0.0
53	0x00000000	0.0
54	0x00000000	0.0
55	0x00000000	0.0
56	0x00000000	0.0
57	0x00000000	0.0
58	0x00000000	0.0
59	0x00000000	0.0
60	0x00000000	0.0
61	0x00000000	0.0
62	0x00000000	0.0
63	0x00000000	0.0

posterior.mu_biases.2 f4 [3]
0	0x00000000	0.0
1	0x00000000	0.0
2	0x00000000	0.0
